lightning_logs/version_4/checkpoints/model=lr--dev=False.ckpt (torch, 5003 bytes, 6 tensors)

linear.weight f4 [2, 8]
0	0x40100818	2.250494
1	0xbf834799	-1.0256225
2	0x3ed119c7	0.4083998
3	0x3ccbc7cb	0.024875542
4	0x4017fad8	2.3746853
5	0xbfc8e19b	-1.5693849
6	0x3fac7012	1.3471701
7	0xbf582e7d	-0.84445935
8	0xc00c0146	-2.1875777
9	0x3f7c4560	0.9854336
10	0xbdd01ca2	-0.10161711
11	0x3e7ce104	0.24695212
12	0xc004fcf4	-2.077939
13	0x3ff7a33b	1.9346689
14	0xbfc41873	-1.5319961
15	0x3f8e57a6	1.1120498

linear.bias f4 [2]
0	0x3eb198bd	0.34686843
1	0xbeb7dccb	-0.3591064

exp_avg f4 [2, 8]
0	0xb9724eac	-0.00023108226
1	0x3a4c30b6	0.0007789241
2	0xb8af210b	-8.350805e-05
3	0x3a25812c	0.00063134986
4	0x39aad65b	0.00032584634
5	0x3968c76f	0.00022199539
6	0x38ae66ae	8.316092e-05
7	0x39f3a066	0.00046468078
8	0x39724eae	0.00023108229
9	0xba4c30b8	-0.0007789242
10	0x38af211d	8.350818e-05
11	0xba258130	-0.0006313501
12	0xb9aad65a	-0.0003258463
13	0xb968c77e	-0.00022199561
14	0xb8ae66af	-8.316093e-05
15	0xb9f3a06d	-0.00046468098

exp_avg_sq f4 [2, 8]
0	0x359969f0	1.143022e-06
1	0x36923a60	4.357935e-06
2	0x3581a1f9	9.658389e-07
3	0x3691cad4	4.344949e-06
4	0x36020f5c	1.938045e-06
5	0x3637d854	2.7395045e-06
6	0x35ebe346	1.757501e-06
7	0x368106ee	3.8453063e-06
8	0x359969ec	1.1430216e-06
9	0x36923a61	4.3579353e-06
10	0x3581a1f6	9.658386e-07
11	0x3691cad5	4.3449495e-06
12	0x36020f5b	1.9380448e-06
13	0x3637d856	2.739505e-06
14	0x35ebe34b	1.7575015e-06
15	0x368106f0	3.845307e-06

exp_avg f4 [2]
0	0x3a0f9d09	0.0005478417
1	0xba0f9d0c	-0.0005478419

exp_avg_sq f4 [2]
0	0x36cdb5d4	6.1306437e-06
1	0x36cdb5cb	6.1306396e-06
