lightning_logs/version_0/checkpoints/model=albert--dev=False--epoch=89-step=10170--val_loss=0.35.ckpt (torch, 23307 bytes, 6 tensors)

linear.weight f4 [2, 768]
0	0x3ea03714	0.3129202
1	0xbd94527e	-0.07242297
2	0xbe947d1b	-0.29001698
3	0xbe9c61f8	-0.30543494
4	0xbe58f5e0	-0.21187544
5	0x3d7a7e8f	0.061155852
6	0x3d21ae59	0.03947291
7	0xbdf324a9	-0.11872227
8	0x3e2c3e77	0.16820703
9	0xbe2ce0a0	-0.16882563
10	0xbd2d616e	-0.042329244
11	0xbd86c2ba	-0.0658011
12	0xbe104a67	-0.14090882
13	0xbeacea22	-0.3377238
14	0xbdad83fa	-0.08472438
15	0xbde59d07	-0.11211591
16	0xbeb87332	-0.36025387
17	0x3eadea08	0.33967614
18	0x3e9da86d	0.3079256
19	0xbe17cf87	-0.14825259
20	0x3dc85798	0.09782332
21	0x3d6017af	0.054710086
22	0x3d17ac38	0.037029475
23	0xbec52093	-0.38501415
24	0xbe4b0a45	-0.19828136
25	0x3da2e9bc	0.079547375
26	0xbe1b5491	-0.15168978
27	0xbdfdf138	-0.123995245
28	0x3cfdd30d	0.030984426
29	0xbadb4860	-0.0016729943
30	0x3dd05bfd	0.10173795
31	0x3d8bbde9	0.06823332
32	0x3e331b48	0.17490876
33	0x3e79129c	0.24323505
34	0xbc22e0e4	-0.009941313
35	0x3de09aed	0.1096705
36	0x3d00cefc	0.031447396
37	0xbec0c4ad	-0.37650052
38	0x3d337876	0.043816052
39	0xbe1d1229	-0.15338959
40	0x3c14ecbc	0.009089645
41	0xbdbdffe3	-0.09277322
42	0x3c01a6f8	0.007913344
43	0x3d6d5efb	0.05795191
44	0x3cf3c4f5	0.029757002
45	0x3d46db90	0.048549235
46	0xbe3fa2fa	-0.18714514
47	0xbe2f8450	-0.17140317
48	0xbdea9326	-0.114538476
49	0xbdf646b2	-0.12025203
50	0x3e705f76	0.23473915
51	0xbda5ff18	-0.08105296
52	0x3ea30696	0.31840962
53	0xbe4c4aec	-0.19950455
54	0xbd946063	-0.07244947
55	0xbe6137e8	-0.21993983
56	0xbe0be2ee	-0.13660786
57	0x3d3517dd	0.04421221
58	0x3e9819e2	0.29707247
59	0xbca48454	-0.02008263
60	0xbe876c6b	-0.26449904
61	0x3e2ca476	0.16859612
62	0xbd4d06a6	-0.05005517
63	0x3e1409cd	0.14456864
64	0x3cf1f94f	0.029537825
65	0x3d68ce41	0.056837324
66	0xbdbd0df3	-0.09231176
67	0x3e64607a	0.22302428
68	0xbc17df7c	-0.009269591
69	0xbe028f14	-0.12749892
70	0xbcd8acb1	-0.026449533
71	0x3dcfbba1	0.10143209
72	0x3dd7c03b	0.10534712
73	0x3d4b58ab	0.049645107
74	0x3e1b8977	0.15189157
75	0xbd988dfb	-0.074489556
76	0xbd424d77	-0.047437157
77	0x3ea1b6d3	0.31584796
78	0x3e871261	0.2638121
79	0xbe63a785	-0.22231872
80	0x3e9256ff	0.28581998
81	0x3d8a28f5	0.06746093
82	0xbe057ff9	-0.13037099
83	0xbcfc2ea1	-0.030783953
84	0xbe396667	-0.1810547
85	0xbd37c784	-0.044868007
86	0x3e694001	0.22778322
87	0x3d5b335f	0.05351579
88	0x3ec255f7	0.3795621
89	0xbbc02ba9	-0.0058645797
90	0x3db19f6e	0.08672987
91	0xbdd6a2d9	-0.104802795
92	0xbbdc03e4	-0.006714331
93	0x3da5f5f1	0.0810355
94	0xbd2dab6f	-0.04239982
95	0x3c8695f3	0.016428923
96	0x3e59b249	0.21259417
97	0x3e38194a	0.17978397
98	0xbbe5dc46	-0.007014784
99	0x3db73dfd	0.0894737
100	0xbe8a3e1b	-0.27000508
101	0x3d907b24	0.07054737
102	0x3c8e6815	0.017383615
103	0x3e3478a9	0.17624153
104	0xbe2230fc	-0.15838999
105	0x3e665481	0.22493173
106	0x3db10580	0.08643627
107	0xbe81138d	-0.2521023
108	0xbe7492d7	-0.2388414
109	0x3b577311	0.0032874981
110	0xbd5ce967	-0.053933527
111	0xbe46fbda	-0.19432011
112	0xbeba24e2	-0.36356264
113	0xbea17e71	-0.3154178
114	0x3d9c6ebe	0.0763831
115	0xbe2d2982	-0.16910365
116	0xbca7caf2	-0.020482514
117	0x3d11bdc7	0.035581376
118	0xbeb40393	-0.35158977
119	0xbe53fc06	-0.20701608
120	0x3bdd7df7	0.006759401
121	0x3e7d3c83	0.24730115
122	0xbdf1d35b	-0.11807891
123	0xbe6a368a	-0.22872368
124	0x3e229612	0.1587756
125	0xbdff6b4b	-0.124716364
126	0xbe55b272	-0.20868853
127	0xbe385f6a	-0.18005148
128	0xbd408edf	-0.047011252
129	0x3d2b7e11	0.041868273
130	0x3e494a1c	0.19657177
131	0xbe7703dc	-0.24122566
132	0xbe08070d	-0.1328394
133	0x3e071fdc	0.13195747
134	0x3e5cec3b	0.2157449
135	0x3db770fc	0.08957097
136	0x3d6012f2	0.054705568
137	0xbd0bd2bd	-0.034136523
138	0x3e3cd928	0.18442214
139	0x3e64d33c	0.22346205
140	0xbe9e7c91	-0.30954412
141	0xbd30cb58	-0.043162674
142	0xbbbcf062	-0.0057659606
143	0xbeb916a2	-0.3615008
144	0xbe925626	-0.2858135
145	0xbe40d6d7	-0.18831955
146	0x3cbf177d	0.02332663
147	0x3c6d8a07	0.01449824
148	0xbc76799e	-0.015043644
149	0x3da5050a	0.08057602
150	0x3e3b4958	0.18289697
151	0x3d994204	0.074832946
152	0x3e5fdbd3	0.218612
153	0xbe181b27	-0.14854108
154	0xbe1b62ed	-0.15174456
155	0xbc99e81d	-0.018787438
156	0xbd2259c0	-0.039636374
157	0x3db5b02a	0.08871491
158	0x3cdcf2ba	0.02697121
159	0xbd1f2f6e	-0.03886359
160	0xbd92bdeb	-0.0716513
161	0x3e0a81bb	0.13526051
162	0xbe16146d	-0.1465623
163	0x3e71b840	0.23605442
164	0xbe47d7f2	-0.1951597
165	0xbe26e7cf	-0.16299365
166	0x3d68e6c7	0.05686071
167	0xbe5c0a63	-0.21488337
168	0x3dfec2a5	0.12439469
169	0x3e9e8e1c	0.30967796
170	0x3d516094	0.051117495
171	0xbe4a23ef	-0.1974027
172	0xbd42eb3b	-0.047587615
173	0x3e91f10d	0.2850422
174	0x3d94a63c	0.07258269
175	0xbe00fa2e	-0.12595436
176	0xbdb2dc12	-0.08733381
177	0xbeaa75e7	-0.33293077
178	0x3c6b554c	0.014363598
179	0xbe0c72ba	-0.1371564
180	0x3c68a4a4	0.01419941
181	0xbefa414b	-0.4887794
182	0xbe4b166d	-0.19832774
183	0x3e06b343	0.1315432
184	0x3ee2ca69	0.44295052
185	0x3eb592cd	0.35463563
186	0x3bfeb0d0	0.0077725425
187	0x3d51f2ac	0.05125682
188	0x3d3ae5ad	0.045629192
189	0xbe51dab8	-0.20493591
190	0xbd635fda	-0.055511333
191	0xbd075e36	-0.03304883
192	0x3c0081a2	0.007843407
193	0x3f1a5a2f	0.6029386
194	0xbe456c00	-0.1927948
195	0x3c63c535	0.013901998
196	0x3c5fb1ab	0.013653199
197	0x3e7971ba	0.2435979
198	0xbdf99e14	-0.12188354
199	0x3e78cc8d	0.2429678
200	0xbe04339e	-0.12910315
201	0x3f03d263	0.514929
202	0x3d2eaf6b	0.04264776
203	0xbeec90ee	-0.46204323
204	0x3db06c19	0.08614368
205	0x3e0dd02b	0.13848941
206	0x3edcafa2	0.43102747
207	0x3bb7d130	0.005609654
208	0xbe615b13	-0.22007398
209	0xbddbfed6	-0.107419655
210	0xbdbb0609	-0.091320105
211	0x3e5ba5e1	0.21449997
212	0xbc51a3f9	-0.012795442
213	0xbdcc35e2	-0.09971215
214	0xbe160833	-0.14651565
215	0xbe228bcb	-0.1587364
216	0xbe24206e	-0.16027996
217	0x3d188aea	0.037241854
218	0xbd15be78	-0.0365586
219	0xbe6379a7	-0.22214375
220	0x3e84d541	0.2594395
221	0xbdb05924	-0.08610752
222	0x3e58d028	0.21173155
223	0xbe748c31	-0.23881604
224	0x3cad79e8	0.021176293
225	0xbd18f264	-0.037340537
226	0x3ebd25e6	0.36942977
227	0xbd9c5cbb	-0.076348744
228	0xbe0d71de	-0.13812968
229	0xbd751bd2	-0.059840985
230	0x3d97e3ec	0.074165195
231	0x3d77d858	0.060509056
232	0x3ecfe5c9	0.40605
233	0xbdac221f	-0.084049456
234	0x3d6d0d35	0.057873923
235	0x3ef50369	0.47854164
236	0x3d076484	0.033054844
237	0xbea2ccb1	-0.31796792
238	0x3d609c10	0.054836333
239	0xbe9f9e76	-0.31175584
240	0x3e426301	0.1898308
241	0xbe035bd6	-0.12828001
242	0xbdc1705d	-0.0944526
243	0xbdf74740	-0.12074137
244	0x3cb93f36	0.02261315
245	0xbe807402	-0.25088507
246	0x3e148e4b	0.14507405
247	0x3e73f9ea	0.23825803
248	0x3d508158	0.0509046
249	0x3c70a191	0.014686958
250	0xbd530dda	-0.05152688
251	0x3d6789d3	0.056527924
252	0x3dfb4e89	0.12270839
253	0xbd0ec5b8	-0.034856528
254	0xbe76506e	-0.24054119
255	0x3dd3c6ab	0.10340627

linear.bias f4 [2]
0	0x3c709b14	0.014685411
1	0xba0d67d4	-0.0005394195

exp_avg f4 [2, 768]
0	0xbb041031	-0.0020151252
1	0xbabccdca	-0.0014404592
2	0xbac62c17	-0.0015119341
3	0x3ab64f81	0.0013909192
4	0x39ffe957	0.00048811242
5	0x3a8c270f	0.0010692793
6	0x3923418a	0.00015569307
7	0x39de5da9	0.00042412922
8	0x389ddca4	7.527441e-05
9	0xbb091a9e	-0.0020920406
10	0xbad1f1d9	-0.0016017511
11	0xba966c9d	-0.0011476461
12	0xbad5d0ad	-0.00163128
13	0xb9283602	-0.00016041848
14	0xb9d805e3	-0.00041203116
15	0xba4abaf6	-0.0007733548
16	0x39c1128e	0.00036825653
17	0x39e62d03	0.00043902555
18	0xb9c09a2c	-0.0003673596
19	0x38255bfc	3.9424733e-05
20	0xbb08b9fc	-0.0020862808
21	0x3b250310	0.0025178827
22	0x3af40b90	0.0018619169
23	0x39dfadde	0.00042663416
24	0xba65fc40	-0.0008773245
25	0x3a25cbd6	0.00063246244
26	0xb975a31c	-0.00023425784
27	0x3a00c207	0.0004911725
28	0xbaa86f5f	-0.0012850574
29	0x3b2e9676	0.0026639975
30	0x3a7f5de8	0.0009741471
31	0xbb198a1e	-0.0023428272
32	0xbaae6ee6	-0.0013308197
33	0xb953a4e2	-0.00020183952
34	0x39d92254	0.00041415042
35	0x3b5e0320	0.0033876374
36	0xbaaa879e	-0.0013010388
37	0x3a18d840	0.00058305636
38	0xba721440	-0.0009234585
39	0x3afda738	0.0019352203
40	0xbac46658	-0.0014984114
41	0xb9dfeeda	-0.00042711833
42	0x3a382e66	0.0007025957
43	0x3a456da0	0.0007531289
44	0xbabb98e6	-0.0014312535
45	0xbb0d6a78	-0.0021578353
46	0x3a27092c	0.0006371911
47	0xba06cf58	-0.0005142591
48	0xb95b9132	-0.00020939557
49	0xba17ef3c	-0.00057958416
50	0xbaa4db1e	-0.0012577509
51	0x39803254	0.0002445156
52	0xba81f34f	-0.000991443
53	0xbadf6654	-0.0017044046
54	0xbb080ab3	-0.002075833
55	0xbaa1365c	-0.0012299526
56	0x398d4ed2	0.0002695234
57	0xbac8bd1e	-0.001531515
58	0x394f9c4d	0.00019799285
59	0xba6d335e	-0.0009048487
60	0xb99cc32b	-0.0002990005
61	0x3a63413b	0.0008669083
62	0xba8b8f28	-0.0010647522
63	0x3a1bb230	0.0005939333
64	0x3ab5015c	0.0013809609
65	0xbac7f604	-0.0015255813
66	0xba7be4be	-0.00096089754
67	0xb81a39e2	-3.677037e-05
68	0xbaa43f79	-0.0012531123
69	0xba2a429a	-0.000649491
70	0xba483566	-0.00076373515
71	0x39d164ca	0.0003993868
72	0x3b0ca20c	0.0021458892
73	0xba2f7430	-0.00066930335
74	0x3abe7bdb	0.0014532761
75	0x39d5c769	0.00040775098
76	0xbb48ea34	-0.0030657174
77	0xb95eabcf	-0.00021235574
78	0xba751c63	-0.0009350238
79	0xbb2899a8	-0.0025726352
80	0xba49f3fc	-0.0007703898
81	0xbacd7d44	-0.0015677591
82	0x3a9940f5	0.0011692332
83	0x3b473914	0.0030399011
84	0xbac851a8	-0.0015283125
85	0xb9076373	-0.00012911651
86	0x3a6110d0	0.0008585574
87	0x3aaf7bfc	0.0013388391
88	0x39fff8a9	0.00048822656
89	0x3b5cd7a5	0.003369787
90	0xbaa60ad0	-0.0012668017
91	0x3aa98697	0.0012933788
92	0xba247f1b	-0.00062750437
93	0x389624b4	7.159394e-05
94	0x3afbc17e	0.0019207445
95	0x39bad5b3	0.00035635903
96	0xbae7ef58	-0.0017695231
97	0xb9fb1e62	-0.00047897088
98	0x3985415e	0.0002541644
99	0xba3894ed	-0.00070412346
100	0x3a1989d4	0.0005857025
101	0x3a981a3a	0.0011604496
102	0xbb172278	-0.0023061316
103	0x39a48929	0.0003138271
104	0x3a231fa6	0.00062226725
105	0xb953173e	-0.00020131186
106	0xbb3236ea	-0.0027193376
107	0x3a559ea4	0.00081489445
108	0xba450f7b	-0.00075172604
109	0x3a701e08	0.00091597484
110	0xba54ffa2	-0.00081252505
111	0x3a24b882	0.00062835973
112	0xba1e830e	-0.00060467503
113	0xba8895b5	-0.0010420593
114	0xb9388480	-0.00017596968
115	0xb9b347e8	-0.00034195115
116	0x3b00e172	0.0019665626
117	0xbb758d00	-0.0037468076
118	0xb8727185	-5.780302e-05
119	0xb9b5a7f3	-0.00034648142
120	0xbaff6eb0	-0.0019487944
121	0x39378fde	0.00017505835
122	0xb97f378c	-0.00024339388
123	0xba1c6319	-0.00059656944
124	0x38a401a5	7.820436e-05
125	0xbb07238c	-0.0020620553
126	0xb9fc19ce	-0.00048084412
127	0x3a633073	0.0008666582
128	0xbb5afd62	-0.0033415188
129	0x3b9dacc6	0.004811856
130	0x3a9e6d48	0.0012087012
131	0x37874fc8	1.6130405e-05
132	0x3a06e2d4	0.00051454944
133	0x39adaee9	0.0003312745
134	0x37c3a5a8	2.3322951e-05
135	0xba4943bc	-0.0007677635
136	0xba05a7db	-0.000509856
137	0x3b0be97b	0.0021348882
138	0xbb35cfde	-0.0027742307
139	0x38ece9a6	0.00011296877
140	0xbaa9c839	-0.0012953348
141	0x3aaa3c19	0.0012987881
142	0x3b0342bb	0.0020028788
143	0xbadfa4ca	-0.0017062661
144	0x3665b7c0	3.4230616e-06
145	0xba87b14a	-0.0010352519
146	0x3b8b8b04	0.0042585153
147	0xba503b92	-0.0007943447
148	0xbaa122d0	-0.00122937
149	0x3b17c7b4	0.0023159804
150	0xba82efcb	-0.0009989677
151	0x3b203503	0.002444566
152	0xbab8ae5c	-0.0014090049
153	0x3acd9486	0.0015684522
154	0x38ef2a14	0.00011404246
155	0xbaf9ecb4	-0.0019067735
156	0x3afce0e4	0.0019293097
157	0x3b22cbde	0.0024840753
158	0x3ac12d99	0.0014738321
159	0x3ab5afe7	0.0013861627
160	0x3a954940	0.0011389628
161	0x3a0155c8	0.0004933742
162	0x384b12ac	4.841636e-05
163	0xba6f122c	-0.0009119834
164	0xb9a08dca	-0.0003062322
165	0xba8b21b0	-0.0010614898
166	0x396fe1a6	0.00022876877
167	0x395b3f14	0.00020908966
168	0xb9c3af01	-0.00037323686
169	0x389d447c	7.4990996e-05
170	0x3a191d9a	0.0005840898
171	0xba645848	-0.00087106647
172	0x3b11e462	0.002226137
173	0x39ed0fe8	0.00045216014
174	0xba0ad7ee	-0.0005296458
175	0xbb30697d	-0.0026918345
176	0xbb09cf97	-0.0021028274
177	0x3a7ea5d7	0.0009714043
178	0x3a18cb31	0.0005828618
179	0xb80e99f2	-3.399881e-05
180	0x3b4eb1f7	0.003153918
181	0xb9ad8892	-0.00033098884
182	0x3a9877dc	0.00116324
183	0x3aaeb62c	0.0013329438
184	0x390bbb49	0.00013325842
185	0x371012f4	8.587482e-06
186	0xb8de7248	-0.000106070715
187	0xba93a588	-0.0011264542
188	0x39af3f10	0.00033425586
189	0xb9cbe7c1	-0.00038891847
190	0xb99ef3bc	-0.00030317705
191	0x3ab21b71	0.00135885
192	0xba8c7557	-0.0010716122
193	0xb9983cae	-0.0002903691
194	0x3b1d4020	0.002399452
195	0x3b050b32	0.0020300862
196	0x3aa2530c	0.0012384369
197	0xba4a9442	-0.00077277806
198	0x39b1f990	0.0003394601
199	0x39b96566	0.00035361497
200	0xba9b6f04	-0.0011858647
201	0xbabaec0c	-0.0014261021
202	0xbb4b314e	-0.003100473
203	0xba080731	-0.000518906
204	0xbaaadae3	-0.0013035204
205	0xba44494b	-0.0007487728
206	0x3a1475f2	0.0005663327
207	0xbb23df78	-0.0025005024
208	0x3a9308c6	0.0011217825
209	0xba81b370	-0.0009895395
210	0x399e7135	0.00030220454
211	0x3956b540	0.00020476151
212	0xba31e63d	-0.00067863223
213	0xb94cf02f	-0.00019544431
214	0xba438f9e	-0.00074600603
215	0x39b7c5d4	0.00035051873
216	0xba2e8bbc	-0.0006658395
217	0x39b0656a	0.00033644895
218	0x3a284b00	0.0006419867
219	0x3abfdfb8	0.0014638817
220	0xbaed3882	-0.0018098506
221	0xbb067596	-0.0020516864
222	0xba2151d0	-0.00061538536
223	0x393f390b	0.0001823643
224	0x3a96b1d7	0.0011497092
225	0x3a1aae3e	0.0005900598
226	0x3a4c38b2	0.00077904307
227	0x3afb8f6f	0.0019192527
228	0x3aa68e1c	0.0012707147
229	0x3b121829	0.0022292233
230	0xbab1f95a	-0.0013578341
231	0x3a8d28c9	0.0010769601
232	0x3a7303c5	0.0009270276
233	0x3ae45cb6	0.001742265
234	0x3a7d320e	0.0009658643
235	0x39b9a078	0.00035405508
236	0xb9caa579	-0.0003865173
237	0xb990a4c8	-0.00027588592
238	0x3a3339a6	0.00068368984
239	0xb9d158be	-0.00039929705
240	0x3a466582	0.00075682264
241	0xb9d163a0	-0.00039937813
242	0x3a0c2a93	0.000534692
243	0xb92c6377	-0.00016440252
244	0x3a4de4bd	0.0007854214
245	0x3a9902a3	0.001167376
246	0xbad296f4	-0.0016066716
247	0x3ad2ea79	0.0016091607
248	0xbb0f821c	-0.002189762
249	0xbc15065c	-0.0090957545
250	0x3a41364a	0.00073704554
251	0x3a8041dc	0.0009785253
252	0x3aaa093c	0.0012972723
253	0xbae826af	-0.0017711724
254	0x394254c8	0.00018532865
255	0x39c2dfad	0.00037169215

exp_avg_sq f4 [2, 768]
0	0x370635e9	7.999574e-06
1	0x3677f634	3.6949177e-06
2	0x3769eefb	1.3943524e-05
3	0x36995869	4.5700476e-06
4	0x363a74ba	2.7784104e-06
5	0x374bfc88	1.215854e-05
6	0x366142e2	3.3566544e-06
7	0x36a48e13	4.9041205e-06
8	0x35f72c14	1.8415762e-06
9	0x37c9cc61	2.4056239e-05
10	0x37932663	1.754164e-05
11	0x3709077e	8.167581e-06
12	0x374e712f	1.2304909e-05
13	0x367bc029	3.7513767e-06
14	0x3623ce31	2.4408912e-06
15	0x35e615b6	1.7142654e-06
16	0x35912fc8	1.0817248e-06
17	0x36116c10	2.1669584e-06
18	0x360d58e3	2.1062376e-06
19	0x361d6261	2.3452087e-06
20	0x37cab64a	2.4165161e-05
21	0x385e2b48	5.2969233e-05
22	0x36b56132	5.4055354e-06
23	0x360497b8	1.9757845e-06
24	0x3651063c	3.1147056e-06
25	0x36cb5126	6.0593184e-06
26	0x363ea3ef	2.8407628e-06
27	0x36402165	2.8629668e-06
28	0x37a968eb	2.0195226e-05
29	0x3817cf73	3.6194408e-05
30	0x376e7d5b	1.4215092e-05
31	0x3812ea22	3.5027166e-05
32	0x36ff4016	7.607053e-06
33	0x360e27a9	2.1182734e-06
34	0x378156e8	1.5418467e-05
35	0x386aff98	5.6027988e-05
36	0x373e0941	1.1327037e-05
37	0x363b939e	2.7951096e-06
38	0x36a572cc	4.9307473e-06
39	0x37e24cbb	2.697703e-05
40	0x369ecdbd	4.732718e-06
41	0x36328d0e	2.6606172e-06
42	0x37208dcd	9.569759e-06
43	0x366aa0c3	3.4962293e-06
44	0x3749a82d	1.201969e-05
45	0x37c1b234	2.3090375e-05
46	0x37906942	1.7215152e-05
47	0x36ddc8b7	6.6096795e-06
48	0x3759e5f7	1.2987751e-05
49	0x36594a11	3.2378632e-06
50	0x368b5401	4.152302e-06
51	0x37040882	7.869794e-06
52	0x3635b282	2.7075007e-06
53	0x37895982	1.6373353e-05
54	0x37bc88c5	2.2475035e-05
55	0x36bd5d30	5.6434874e-06
56	0x35e2405e	1.6857045e-06
57	0x379644b0	1.7913379e-05
58	0x35f21b5f	1.8038371e-06
59	0x37e5ff9f	2.741796e-05
60	0x36304fee	2.627257e-06
61	0x3763dcbb	1.3581647e-05
62	0x364f1b89	3.0861431e-06
63	0x35b0a0da	1.3159836e-06
64	0x3724a27e	9.812995e-06
65	0x368357a0	3.914305e-06
66	0x372c8df0	1.0285046e-05
67	0x360ab7ea	2.0670655e-06
68	0x36b3d2e9	5.359169e-06
69	0x36acd6ba	5.150997e-06
70	0x3671ee93	3.6050667e-06
71	0x364fbf60	3.0956799e-06
72	0x37ad7626	2.0678224e-05
73	0x3716ea4f	8.995251e-06
74	0x36fdb2fb	7.5608236e-06
75	0x366188f0	3.360732e-06
76	0x388388bb	6.272035e-05
77	0x369287cf	4.3669493e-06
78	0x361c6bc5	2.3308542e-06
79	0x376c1ea5	1.4073831e-05
80	0x35c86b95	1.4932472e-06
81	0x370a3312	8.237332e-06
82	0x3741d336	1.1552873e-05
83	0x3885a370	6.372377e-05
84	0x372e3d3b	1.03854645e-05
85	0x368dbb34	4.2239208e-06
86	0x35faf556	1.8697854e-06
87	0x37b9f329	2.2166949e-05
88	0x361ac35b	2.30615e-06
89	0x3889021e	6.5330634e-05
90	0x3729b1f6	1.011462e-05
91	0x36a542ce	4.9251603e-06
92	0x36bf1f47	5.6958847e-06
93	0x369a4a2e	4.5981933e-06
94	0x375fc03d	1.3336595e-05
95	0x3605a860	1.9916552e-06
96	0x37321471	1.0614386e-05
97	0x356df849	8.865068e-07
98	0x368ac410	4.135545e-06
99	0x372d95b0	1.0346455e-05
100	0x3643c480	2.9171642e-06
101	0x37240a02	9.777492e-06
102	0x37de1f04	2.6478905e-05
103	0x362ceebb	2.5768957e-06
104	0x3637d350	2.7392125e-06
105	0x35c692f6	1.4794921e-06
106	0x37eb9a87	2.808614e-05
107	0x36ab2f43	5.101699e-06
108	0x370420be	7.8754365e-06
109	0x37a630f3	1.9811536e-05
110	0x372acb14	1.0180072e-05
111	0x36556f96	3.1804425e-06
112	0x3684bb9e	3.955748e-06
113	0x36b84c40	5.492504e-06
114	0x355a6b21	8.136722e-07
115	0x362d6271	2.583631e-06
116	0x37b6f69a	2.1810923e-05
117	0x387ba4dd	5.9996604e-05
118	0x3712ae82	8.742909e-06
119	0x367b1d3a	3.7418927e-06
120	0x38059f71	3.1858162e-05
121	0x35e8812c	1.7322941e-06
122	0x3657b75c	3.2144226e-06
123	0x364e7cb3	3.0768977e-06
124	0x362a83bc	2.5408654e-06
125	0x38239f56	3.901062e-05
126	0x360950c2	2.0461598e-06
127	0x371f7caa	9.506164e-06
128	0x38909824	6.8947935e-05
129	0x38e26110	0.00010794599
130	0x377254c6	1.4444062e-05
131	0x3698bbe3	4.551826e-06
132	0x36214591	2.4031362e-06
133	0x35f7365b	1.8418754e-06
134	0x35d76f74	1.6051185e-06
135	0x373b1dae	1.1152979e-05
136	0x36fac087	7.4729937e-06
137	0x37ddead0	2.6454596e-05
138	0x381a0c53	3.672794e-05
139	0x361c3080	2.3274042e-06
140	0x37029996	7.784363e-06
141	0x37ab6567	2.0432008e-05
142	0x38204415	3.821038e-05
143	0x36d18666	6.2443314e-06
144	0x35cbc7b9	1.5182806e-06
145	0x36dcf5d1	6.5851277e-06
146	0x38caede7	9.676423e-05
147	0x36ea2904	6.9785183e-06
148	0x37a9139a	2.0155498e-05
149	0x37dd01f6	2.6346166e-05
150	0x3695dfff	4.4666226e-06
151	0x37d670ec	2.5563371e-05
152	0x371a1dbd	9.186039e-06
153	0x37466983	1.1826286e-05
154	0x36dfe9c5	6.6731322e-06
155	0x381bf774	3.718534e-05
156	0x37e9c9a1	2.7869655e-05
157	0x382172ac	3.8492188e-05
158	0x3724562d	9.795226e-06
159	0x3796cb2b	1.7976e-05
160	0x37023ace	7.762295e-06
161	0x370307d1	7.810028e-06
162	0x36c2cb86	5.805344e-06
163	0x362c2fca	2.5657814e-06
164	0x3675968f	3.6595482e-06
165	0x36369805	2.72086e-06
166	0x369ea703	4.7282097e-06
167	0x351676da	5.6052306e-07
168	0x3720cba5	9.584158e-06
169	0x351cd7f8	5.8428805e-07
170	0x362c97e4	2.571841e-06
171	0x36f48097	7.2867365e-06
172	0x381a3697	3.6767302e-05
173	0x35e735d7	1.7226511e-06
174	0x369da27a	4.6978794e-06
175	0x37d1b645	2.4999617e-05
176	0x37b4fbf0	2.157499e-05
177	0x3671a34c	3.600685e-06
178	0x3630b043	2.6328642e-06
179	0x35e4d5d3	1.7049555e-06
180	0x3835da25	4.3356926e-05
181	0x357e72ec	9.4789607e-07
182	0x3715051d	8.882283e-06
183	0x379a2653	1.8376077e-05
184	0x35cbdea7	1.5189479e-06
185	0x367c61cc	3.7607851e-06
186	0x3708c5a9	8.152253e-06
187	0x3617354b	2.2531774e-06
188	0x36205402	2.3890757e-06
189	0x35e3508f	1.6936264e-06
190	0x36737c3b	3.6282133e-06
191	0x378322d6	1.5632639e-05
192	0x36e68b06	6.8707186e-06
193	0x358af8b0	1.0354179e-06
194	0x37d1e445	2.5021038e-05
195	0x3798551a	1.815944e-05
196	0x371de8a7	9.412098e-06
197	0x37281929	1.0019438e-05
198	0x36183127	2.2678375e-06
199	0x37172e84	9.011132e-06
200	0x378e5d0e	1.6971051e-05
201	0x35eee038	1.7797638e-06
202	0x382e198a	4.1508618e-05
203	0x360f530e	2.1357005e-06
204	0x3762f1dd	1.3526963e-05
205	0x3743bf59	1.1667457e-05
206	0x35eb8a7b	1.7549168e-06
207	0x383337ad	4.2728778e-05
208	0x3772e40b	1.4477419e-05
209	0x36d8f13e	6.465386e-06
210	0x367873b1	3.702222e-06
211	0x36fea3cd	7.588859e-06
212	0x35b2e0b4	1.3327431e-06
213	0x360f89d6	2.1388892e-06
214	0x37121ee8	8.709474e-06
215	0x36937694	4.3947457e-06
216	0x365e98a0	3.3169417e-06
217	0x368142a8	3.8522594e-06
218	0x3736e75a	1.0901911e-05
219	0x37029021	7.782161e-06
220	0x37350cd1	1.0791425e-05
221	0x380b44ce	3.3204262e-05
222	0x378747c7	1.6126678e-05
223	0x35b6660b	1.3589755e-06
224	0x3714be9b	8.865866e-06
225	0x36c46b4e	5.853747e-06
226	0x35dfbeb5	1.6670298e-06
227	0x37e097c7	2.6773558e-05
228	0x36df7441	6.6594516e-06
229	0x37c938f8	2.3987595e-05
230	0x37c6335d	2.3627357e-05
231	0x37615395	1.34305055e-05
232	0x36474ae4	2.9696903e-06
233	0x374ec245	1.2323789e-05
234	0x36d0455c	6.2069576e-06
235	0x365a2dc8	3.251118e-06
236	0x36bd8fab	5.649364e-06
237	0x36945d0e	4.4215767e-06
238	0x372fffb1	1.0490346e-05
239	0x35c091d3	1.4347555e-06
240	0x36b8ca5c	5.507185e-06
241	0x3624e713	2.4572407e-06
242	0x36b3e0b6	5.3607755e-06
243	0x3640a02d	2.8703464e-06
244	0x365fff54	3.337821e-06
245	0x3772a232	1.4462088e-05
246	0x373df54c	1.13223905e-05
247	0x37b95071	2.2091177e-05
248	0x38241b76	3.9126222e-05
249	0x39f85a72	0.00047369633
250	0x367c66fd	3.7610873e-06
251	0x372c8132	1.02820795e-05
252	0x373f1d03	1.1391242e-05
253	0x37362a10	1.0857839e-05
254	0x363881a6	2.7493602e-06
255	0x36f981fb	7.43591e-06

exp_avg f4 [2]
0	0xbac6b0d3	-0.0015158899
1	0x3ac6b0d6	0.0015158902

exp_avg_sq f4 [2]
0	0x374f6f25	1.2364039e-05
1	0x374f6f27	1.2364041e-05
