lightning_logs/version_3/checkpoints/model=xlnet--dev=False--epoch=85-step=9718--val_loss=0.38.ckpt (torch, 23307 bytes, 6 tensors)

linear.weight f4 [2, 768]
00000000: 70e3 86bc 4263 f03d b723 d3bc 5464 c7be
00000010: ea6b a83d 6790 803e b2ce 85bd b827 36be
00000020: 17f2 723e 46a3 1a3e 6db1 72be 7b16 823e
00000030: 6001 b0be 965c 643e 47b1 933d 7087 36bd
00000040: f9cd 14bc 40d0 163e 6786 bcbd 2024 383e
00000050: 7c49 983c 7aa6 a13d b034 003e ddb5 c03d
00000060: cefc 58be fece f03d 9878 2c3e f902 ef3c
00000070: e065 b5bc 58d9 943e 0c63 0a3e 2e22 5bbe
00000080: b0d5 16be 0529 09be 46b3 c53d 2c22 9cbd
00000090: 1dec babe 05f3 893e 0a46 26be 8220 3f3e
000000a0: 2020 60bd 5af9 23be 5c78 cb3d def5 663b
000000b0: 9347 d4bc e908 3f3c f122 9e3c cf00 32be
000000c0: 85ad 0d3e 42bd 6dbe 408c 35bb 1cd8 e73b
000000d0: 8bae f2bd 1c91 a8be 44ed a33d 8aa9 e5bb
000000e0: 2765 2fbe 06a4 9dbd 0213 793e 5c0a eebe
000000f0: 64a3 1cbd 7de3 d6bd ed9e 30be abad 3fbe
00000100: cd41 0abd 24bd 823e 027b 933e c187 37be
00000110: 68ab ac3d 6420 2ebe 85a6 83bc 3c32 41be
00000120: e6c4 b6be 84f2 643d f651 943c 706b e2bd
00000130: f83e 4d3e 9526 30be b2da 1ebd fc72 62bd
00000140: 74b7 423c 9f49 ad3a 2140 b3be 9747 41bc
00000150: 5898 403d 8cbd 1bbe 4fd1 243d 0f93 cdbc
00000160: 8ad1 383d 375b 7b3e f338 753e d556 dbbe
00000170: 80d2 56be 2518 d03d 8fad 513e 03b8 81be
00000180: 5c27 db3e 4c9a 933e d965 773d b3af 40be
00000190: c82d b43c 06c4 52bc 7f4e 303c 3056 f2bd
000001a0: bdfa 3fbe 8369 55be 5e5d 843e 5d93 86bd
000001b0: e971 793c 10ae 6f3e 77d8 a93e 10a0 4f3e
000001c0: 3540 5e3e 0a67 24be db58 253e 87a7 b63d
000001d0: 881f d73e e461 703e f1c2 1cbc 0664 78bd
000001e0: 76a4 a83c 3e4d fabd 0c87 84be 1504 753e
000001f0: e5a1 7e3e b0c3 35be 11b5 763d 3dbf d23d
00000200: b779 313e 34af 0d3e 5a3a 96bb f4fc 45be
00000210: 8244 5bbd 7cc3 1d3e 4b9e 14bc b585 473e
00000220: 6801 6fbe bb15 0cbe 3530 19be 5fdc 0f3e
00000230: 47bc eebd ac70 5e3e 54fe 5bbe 05c6 a1bc
00000240: 3f1a 02bd d069 833d 88ba cbbb 558b 353d
00000250: 7fbc 263e e005 52be f82f 30be f681 31be
00000260: 0ec6 033e 6798 42ba c798 bc3d 6716 aabe
00000270: bca1 15be 19b4 18be 4db6 4cbe d41e a4bd
00000280: 9406 233e f6fc 39bd 958e c93d 1f13 78be
00000290: b1ef 79be a86b 48be 0fbe 353d 5a6e cfbc
000002a0: 5d22 44bc 705e 83bd 9ec6 03bd 92f6 333e
000002b0: b03c 0d3e e989 93be 4e1c b33d e613 423d
000002c0: 8950 27bd 30b4 22ba 7a55 c83d fb40 97be
000002d0: 1228 da3d f1dd 8bbd 5bb2 a3be 8879 443d
000002e0: 1858 273e 1d0e 9dbe 5bfa 863e b7f6 e9bd
000002f0: 3dc3 d33d 28e6 ab3e 73be c0bd a5b4 4bbe
00000300: 72c6 f0bd 1956 b6be 981d 483e c4f5 59be
00000310: 39ac 6d3e b431 643e 8da1 0f3e 7854 2dbe
00000320: d860 913d 8cc0 f53d 6b57 503d e160 18bd
00000330: cc32 09be 0fb8 1ebc a6df ba3c 1f51 983d
00000340: 4b13 35be 6575 033e 983f 573d d05d 983d
00000350: ea54 07be 934c f93d 02f9 f23d 79e0 51bd
00000360: 3741 8dbe 18a9 b83d a2d4 adbe 99a8 063e
00000370: 3d91 82bd cbfb 74bd 62bf 703d 74d4 d3bd
00000380: f4cc c5bc 3456 67be 7ed7 f03d 1444 91ba
00000390: 3de7 113e a6a6 823e 8766 b8bd 805c 98be
000003a0: 7666 483e 1c92 d9bd 726a 853c 112e 4d3e
000003b0: 00e7 88be 1363 3abe 1978 d3bd c5e2 843c
000003c0: 862c 34be 3f0a 4ebe 10bd 77bd 6298 70be
000003d0: ca7d 493d 652a d2bc 3ac3 44bd e29c c43a
000003e0: e187 0e3e a3b1 b4bd 3052 483e 4b73 a1bd
000003f0: f319 6a3e 0c38 143d f828 fa3d b21a 7c3e
-0.016465873 0.11737682 -0.025773866 -0.38943732 0.08223708 0.2511017 -0.065335646 -0.17788589
0.23725162 0.15101346 -0.23700495 0.25407776 -0.3437605 0.22300944 0.07211547 -0.044562757
-0.009082311 0.14727879 -0.09205323 0.1798253 0.018589728 0.07893081 0.12520099 0.09409688
-0.21190187 0.117582306 0.16842878 0.029176222 -0.022143304 0.2907207 0.13514346 -0.21399757
-0.14729953 -0.13394554 0.09653334 -0.07623705 -0.36508265 0.26943222 -0.16237655 0.18664744
-0.054718137 -0.16013089 0.09935066 0.0035241763 -0.025913035 0.011659839 0.01930377 -0.17383121
0.13835724 -0.23216727 -0.0027702004 0.007075323 -0.11849698 -0.3292321 0.08004239 -0.007008736
-0.1712843 -0.076973006 0.24323657 -0.4649228 -0.03824176 -0.10492609 -0.17248125 -0.18718593
-0.03375416 0.25534928 0.28804785 -0.1792288 0.08431131 -0.17004544 -0.016070614 -0.18866819
-0.35697097 0.055895343 0.018105488 -0.11055648 0.20043552 -0.17202218 -0.038782783 -0.05528544
0.011884559 0.0013220793 -0.35009864 -0.0117968535 0.047020286 -0.15209025 0.040238675 -0.025094537
0.045121707 0.24546514 0.23947506 -0.42839685 -0.20978737 0.10160855 0.20476364 -0.25335702
0.42803466 0.28828657 0.060399864 -0.18817024 0.021994486 -0.012864118 0.010760902 -0.11832845
-0.18747993 -0.20841031 0.25852484 -0.06571076 0.015224912 0.23406243 0.33172962 0.20275903
0.2170418 -0.16054931 0.16147177 0.08918672 0.42016244 0.23474842 -0.009567962 -0.060642265
0.020586234 -0.12221764 -0.25884283 0.23927338 0.24866445 -0.1775043 0.060231272 0.10290382
0.17331587 0.13836366 -0.0045845928 -0.19334775 -0.05353213 0.15406603 -0.009070943 0.19484599
-0.2334038 -0.13680165 -0.14959796 0.14048909 -0.11657005 0.21722668 -0.21483737 -0.019747743
-0.03176331 0.064166665 -0.0062173046 0.04432233 0.16282843 -0.20510054 -0.17205799 -0.17334732
0.1286852 -0.00074232224 0.092088275 -0.33220217 -0.14612478 -0.14912452 -0.19991417 -0.080136925
0.15920478 -0.045407258 0.098416485 -0.24226044 -0.24407841 -0.19572318 0.044370707 -0.025321174
-0.0119710835 -0.06414497 -0.032171838 0.17574528 0.13792682 -0.28816155 0.08745633 0.047382258
-0.04084829 -0.00062066596 0.09781928 -0.29541764 0.10652174 -0.06829441 -0.31972012 0.047967464
0.16342199 -0.3067483 0.2636288 -0.1142401 0.10339973 0.33574033 -0.09411325 -0.19893129
-0.117566004 -0.35612562 0.19542539 -0.21285158 0.23210229 0.22284585 0.1402647 -0.16926754
0.070985496 0.11999616 0.05086462 -0.037201766 -0.13398284 -0.009687438 0.022811722 0.074373476
-0.17683141 0.12837751 0.052550882 0.07439768 -0.13215986 0.121728085 0.11863901 -0.051239464
-0.27588817 0.09016627 -0.33951288 0.13150252 -0.06375358 -0.05981044 0.058776267 -0.103432566
-0.02414558 -0.22591478 0.11759852 -0.0011082911 0.14248367 0.25517768 -0.090039305 -0.29758072
0.19570336 -0.10623571 0.016286109 0.20037104 -0.2673874 -0.18201856 -0.10325641 0.016221413
-0.1759511 -0.20121096 -0.06048304 -0.2349563 0.049192227 -0.02565498 -0.048037745 0.0015000368
0.13919021 -0.08822944 0.19562602 -0.078833185 0.22861461 0.036186263 0.122148454 0.24619558

linear.bias f4 [2]
00000000: 37e6 71bc 0af4 0ebc
-0.01476436 -0.008725176

exp_avg f4 [2, 768]
00000000: 64c6 abb9 7412 1cbb 3cae 993a 0628 89b9
00000010: 8067 3c38 99b3 323b 22e3 a43a 71d0 673a
00000020: e2ad f8b9 4060 3e37 8001 eb39 4463 1db8
00000030: 50db a638 a68f 2abb 1308 c039 586b 08b9
00000040: 72bd 90ba 9bae 45ba f6ff eb39 e8cb dbb9
00000050: 7343 7e3a 9d76 0b3b 9361 5aba bd76 923a
00000060: 1821 053a e784 57bb 2e0c 823a 97e5 71ba
00000070: 7875 d0b9 f0bb b23a deec 823a e613 5fba
00000080: 5ac6 94ba 7e26 463a bbcf 09ba af4b c8ba
00000090: 3c68 783a a038 e4b7 6f95 43ba a652 87ba
000000a0: edcd c1ba 07f0 e3b9 14c0 9c3a 7715 18ba
000000b0: ffa7 ccb9 1e16 7fba c0da 8cba 55bb 8f3a
000000c0: 8be9 743a 28b2 c5b7 01e0 d0ba 86d4 5a3a
000000d0: f824 a73a 7c2e d7b8 01f1 edb9 2d8c 0a3b
000000e0: b7e0 91ba 19c7 1c3a acd7 0dbb 0459 e73a
000000f0: 31b4 fd3a 8190 4cbb bfcc e93a 609f 2fba
00000100: 30fe 93ba 2d4d ea39 965f 113a 0161 31b9
00000110: 1d9e 113b 7d17 923a 9ec4 fe3a f0be 15ba
00000120: b532 c5b9 d0f2 9036 46ea 27ba be17 043a
00000130: a8ae ec39 b2a5 593a 6a98 1439 3c96 8339
00000140: 6dc0 8139 65ac f939 560f 09ba be16 d0ba
00000150: 6e12 f139 524b eb38 4839 1c3b a6be 8639
00000160: a8d1 21ba 498d 4d38 3e0d 8b3a 0e47 0439
00000170: 266e 503a 68ff 38b8 cd65 d1b9 9a65 a53a
00000180: a4e9 bbb9 a775 32b8 22f9 3bba 91b5 96ba
00000190: 9edb a6ba 3dff dfb9 05e3 80ba 935b dfba
000001a0: 5bc0 9239 c412 173a fc30 a2b9 5178 b63a
000001b0: b388 a339 3680 2dbb 643d 36ba 8824 bcba
000001c0: 70db 59ba a3e4 a6ba d0a3 59b9 6834 9139
000001d0: 8036 b836 5802 893a 189e 1bb8 cbd5 8f3a
000001e0: 0995 6f3b 7f18 94ba 05c2 933a 12b5 a63a
000001f0: 7903 b7ba 3594 4e39 2169 0139 5640 0aba
00000200: 6ebb c9b9 43b6 933a 0b7a b53a 5d52 9b39
00000210: 3312 bdba c050 be39 49d3 baba e843 e539
00000220: b5e5 88b9 a30f 003a cfa9 baba d2ad 7339
00000230: feaf fdb9 96b1 c23a 6170 a43a 828e 78b9
00000240: ff08 e4b8 805d 31b8 68da 483b bf6a 3aba
00000250: 9133 cfb9 d025 b336 e262 233a 51d7 6fba
00000260: bbae aeba 863a 603a acb9 053a 5e5b b639
00000270: 34b2 2fba 572d 85ba 2875 18ba d4a0 083a
00000280: fdb7 2bb9 9ba1 e13a 036e 20bb 9362 8a3a
00000290: 4141 54ba f664 5939 343b 3eba 969b 2539
000002a0: 44fe 14b9 72b3 2439 5a87 093b 59e3 9bba
000002b0: 8acd dab9 fe51 0eba 5e95 a239 6c71 c639
000002c0: 9d88 8639 771d f93a d8d3 ba3a f7b0 b03a
000002d0: 5a86 8a3a 5da2 f1b9 6112 b9b9 f106 6239
000002e0: ac69 de3a 6980 c9b9 00df 89b6 6ee7 18ba
000002f0: 61e9 beba 33d2 e53a 989b 933a 9e9a 083b
00000300: 5c69 513a 8593 1d3a d3d6 0e39 cd14 9cb9
00000310: fc64 b33a be50 3cba cedf d2b9 b557 2b3a
00000320: 1333 d9ba 1dd0 5f3a 5f27 04b8 a2e8 67ba
00000330: 2d09 1a3a aea4 49ba 2c7e ca37 cd84 1b3a
00000340: 7c2d 0f3a cefd 053a 3b2b b3ba d4a0 293b
00000350: 02d2 063a 134f 0b3b 86f5 3039 aafd e6ba
00000360: e132 ae39 3e00 673a 8a3a aab9 8234 ecb9
00000370: 5dd7 cdb9 bda9 de39 fc85 99b8 8a78 b3ba
00000380: 7fbc 2c3b 1347 a13a c1da b5ba 42d2 ec3a
00000390: 264c 7e39 3b78 153a 6765 2e3a 3051 cbb9
000003a0: 63e4 cf3a b83b d1b9 32e2 94b9 3487 8539
000003b0: b0e7 3bba 87a1 133b 1e6e be3a 86d3 fc3a
000003c0: f30c 10ba 3cda 5db8 dc0f cb3a 2297 d138
000003d0: 335e e938 40d1 ee38 786e 02ba 9837 003b
000003e0: 41e0 68ba 4699 82ba 309d f1ba 00f3 5db6
000003f0: c030 a137 ed60 4c3a 0cb7 b539 8ca1 e43a
-0.00032763474 -0.002381471 0.00117249 -0.00026160496 4.4919085e-05 0.0027267693 0.0012579898 0.0008843011
-0.000474318 1.13472925e-05 0.0004482381 -3.7524165e-05 7.956347e-05 -0.0026025563 0.0003662711 -0.0001300996
-0.0011042787 -0.0007540972 0.000450134 -0.00041922857 0.0009699382 0.0021280416 -0.000833058 0.0011174303
0.0005078479 -0.0032885612 0.0009921843 -0.0009227632 -0.00039760373 0.0013636332 0.0009988805 -0.000850974
-0.0011350617 0.00075588364 -0.00052570895 -0.0015281345 0.00094759814 -2.7206086e-05 -0.0007460927 -0.0010324314
-0.0014786102 -0.00043475648 0.0011959099 -0.00058015384 -0.0003903508 -0.0009730774 -0.0010746345 0.0010965863
0.0009342662 -2.356719e-05 -0.0015935899 0.00083477085 0.0012752106 -0.00010260657 -0.00045383725 0.002114068
-0.0011129592 0.00059805956 -0.0021643443 0.001765043 0.0019356069 -0.003121406 0.0017837508 -0.0006699469
-0.0011290964 0.00044689458 0.00055455544 -0.00016916172 0.0022219487 0.0011145916 0.0019437259 -0.0005712351
-0.00037612548 4.3198015e-06 -0.0006405454 0.0005038938 0.00045143557 0.00083025836 0.00014171159 0.000250982
0.00024748166 0.00047621425 -0.00052284205 -0.0015875918 0.00045980833 0.00011219703 0.0023837853 0.00025700516
-0.0006172904 4.900739e-05 0.0010608805 0.00012614971 0.00079509837 -4.4106884e-05 -0.00039939434 0.0012618781
-0.00035841495 -4.254808e-05 -0.00071706076 -0.0011498203 -0.0012730246 -0.00042724042 -0.0009833282 -0.0017040841
0.00027990606 0.0005762989 -0.00030935544 0.0013921355 0.00031191632 -0.0026474125 -0.0006951897 -0.0014354149
-0.0008310592 -0.0012732934 -0.00020755758 0.000276956 5.489972e-06 0.0010452969 -3.7102116e-05 0.001097375
0.0036557338 -0.0011298804 0.0011273032 0.0012718758 -0.0013962827 0.00019700902 0.00012341562 -0.0005273869
-0.00038477354 0.0011269528 0.0013845576 0.0002962527 -0.001442498 0.00036299787 -0.0014253642 0.00043728878
-0.00026111086 0.00048851426 -0.0014241281 0.00023239039 -0.00048387045 0.001485395 0.0012545699 -0.00023704211
-0.00010873563 -4.2287167e-05 0.0030647758 -0.00071112433 -0.00039520537 5.3390177e-06 0.0006232691 -0.0009149211
-0.001332722 0.00085536425 0.00051012146 0.0003478182 -0.00067022745 -0.0010160607 -0.00058157975 0.00052119535
-0.00016376372 0.00172143 -0.0024479635 0.0010557942 -0.0008096882 0.00020732344 -0.0007256747 0.00015793586
-0.00014209101 0.00015707107 0.0020985217 -0.0011893316 -0.0004173334 -0.0005429088 0.00031010335 0.0003785001
0.00025660257 0.0019005974 0.0014253808 0.0013480474 0.0010568604 -0.00046088072 -0.00035299643 0.00021555625
0.0016968749 -0.0003843338 -4.108879e-06 -0.00058328256 -0.0014565402 0.0017533958 0.001126158 0.0020844112
0.0007988417 0.0006011057 0.00013622204 -0.00029770136 0.0013686712 -0.00071836624 -0.0004022107 0.00065362017
-0.0016571007 0.0008537786 -3.150792e-05 -0.00088466157 0.0005876001 -0.00076920807 2.413903e-05 0.00059325696
0.0005461795 0.0005111367 -0.00136695 0.0025883215 0.0005142988 0.0021256849 0.00016876133 -0.0017623205
0.00033225774 0.0008811987 -0.00032468542 -0.0004505255 -0.00039261105 0.00042469605 -7.320565e-05 -0.001369254
0.002635747 0.0012304507 -0.0013874398 0.0018068033 0.00024251695 0.00057018147 0.00066526834 -0.00038779667
0.0015860911 -0.0003990808 -0.00028397288 0.0002546847 -0.0007168008 0.0022526698 0.0014528667 0.0019289113
-0.00054950936 -5.2893753e-05 0.0015492397 9.994047e-05 0.00011127852 0.000113877 -0.00049755676 0.0019564386
-0.0008883514 -0.0009963892 -0.0018433686 -3.307301e-06 1.9215397e-05 0.00077964255 0.0003465939 0.0017443164

exp_avg_sq f4 [2, 768]
00000000: bcaf a137 725d b038 6496 9937 2be0 2f37
00000010: 76cd ff36 19bb 5538 e826 4737 59ce 0737
00000020: eeab 0937 5dc8 4137 39e4 1937 aa70 6537
00000030: 2d34 5d37 31d2 3038 7bfd b636 edde fa36
00000040: 931f c937 ea47 6237 e51b 8537 2912 b836
00000050: 46fc 4137 7bbb 2c38 e4d7 8037 3545 3437
00000060: 98f8 f036 d647 e338 8f9d 6637 1876 5137
00000070: a4b9 5d37 c6d1 bf37 7eeb c437 e3b4 f036
00000080: e55a 0438 33c9 9537 9f8e ac37 742d b437
00000090: a0e0 8f37 49a3 8d37 a2a5 d936 124a 7437
000000a0: ece7 b837 e306 d036 6040 1c37 5e85 8e37
000000b0: ef3f b336 8701 e537 bce9 0e37 1fbb 8a37
000000c0: 7f8c ff37 535e e936 1033 a437 e6b3 e736
000000d0: 5c9f 9038 fff8 c336 d3b2 0037 b8de 1e38
000000e0: d115 9037 8143 a137 b1f8 2038 364d b237
000000f0: fd7f e037 2360 1739 8336 2538 4a02 3937
00000100: c38b 0d38 27ac e837 9894 8437 7867 1237
00000110: 99dc 0138 5882 8237 7ed9 4638 719f 2237
00000120: bd14 3a37 0d77 2b37 6ccf 4137 dc94 4037
00000130: b263 b236 a35a 7537 2450 2737 2044 1137
00000140: e20d bf37 0719 0837 8e1c 5137 f930 1738
00000150: ffdd 3e37 cab3 0b37 bb72 6638 e44c fb36
00000160: c74d 3237 390e c536 bbde 5337 cb9e e636
00000170: 83ac 0c37 7aab 8937 efbc b636 76ca 4d37
00000180: e4f9 df36 ccdd 2537 bd0e e136 7a75 a337
00000190: 34e2 dd37 99e6 ef36 c41f 2c37 c359 7837
000001a0: 7d82 b436 d55b b236 9742 ff36 37c3 3b37
000001b0: 0f2a c536 d077 bf38 719a 4f37 cca4 0d38
000001c0: 7d79 5b37 d667 5f37 35a8 0b37 13bb 8337
000001d0: 9c7d 1b37 7e7f 0137 7cc7 b436 f9dd c437
000001e0: 2c00 3539 0e1a db37 a1b0 c637 e83d 8a37
000001f0: 6266 0837 5ee5 f936 ffb3 8d37 11ec 9437
00000200: cb55 fa36 747d 8a37 8ff7 6837 9ada 4737
00000210: 98ef 5637 596b f836 9b3a 9f37 de91 2537
00000220: 2863 c937 cf07 1037 5443 8e37 f2e0 2637
00000230: 2829 b536 daeb 3038 273a 9537 515b bd36
00000240: 19f7 e336 8c76 c336 16d0 4638 0d1f fb36
00000250: b960 e336 9bc4 de36 8320 b236 89fb 7137
00000260: 7ade 5e38 e61b a237 7b7a d536 4751 b036
00000270: 1fcf d536 0429 3537 457d 4c37 02b8 9f37
00000280: b0d8 2b37 bd91 9f37 5e75 3538 9eb4 8f37
00000290: 71af 3437 d2ee 1637 8393 7e37 2b08 d736
000002a0: d192 3037 342f 1937 6975 8337 5bc4 3e37
000002b0: 54aa 2237 715f e036 0fce e336 74ce 3937
000002c0: e15a 2d37 65ac e737 2854 1b38 5389 7937
000002d0: 4bcc ea36 b5ed a537 aa72 4b37 92ed 2637
000002e0: 0d70 9e37 44c0 4537 eb25 0c37 52d4 9137
000002f0: cd95 8c37 2553 3437 33e1 7b37 f42e 5c37
00000300: 9fc0 0b38 b624 4137 b5eb b036 d7aa 0237
00000310: 584d 7d37 efa8 9e37 b5e0 ed36 7058 bc37
00000320: 170f ef37 d2a4 4937 fa4c fd36 8526 be36
00000330: 7eef 1837 e3ed 7a37 d819 b836 571a ca36
00000340: e10f f136 4385 0937 253e bd37 13a0 8438
00000350: 111a 4137 cc42 2838 8cbb 3038 54be 9538
00000360: 2a0b d836 7bbe 6237 38b1 a637 9b8d 1137
00000370: d939 ae37 d093 5037 8398 e836 9e17 6437
00000380: d6f8 ca38 8f13 0437 6d55 2338 11e6 f137
00000390: 679b 8937 a8a3 3d37 84d5 0a37 d528 6e37
000003a0: 1ddd 8137 39c8 4237 c240 a036 9e0b da36
000003b0: f062 6c37 f3f7 ae38 b0ce 6437 b5a9 9a38
000003c0: 4595 4637 3b37 7038 a89e 9a37 5799 eb36
000003d0: a6ae 0337 9475 9737 9ddd 1037 619c ba38
000003e0: 4900 2837 5c6c 2e37 3762 2f38 2484 0d37
000003f0: 6e8b cf36 89ca e137 aee5 8937 ad40 1838
1.9274528e-05 8.4097395e-05 1.8309052e-05 1.0483006e-05 7.623511e-06 5.0957406e-05 1.1870383e-05 8.094671e-06
8.205867e-06 1.1550347e-05 9.172648e-06 1.3675695e-05 1.3184775e-05 4.2157426e-05 5.4535317e-06 7.4765326e-06
2.397577e-05 1.34873935e-05 1.5867825e-05 5.4857414e-06 1.1562433e-05 4.11826e-05 1.5359321e-05 1.074495e-05
7.1814975e-06 0.00010837584 1.3745753e-05 1.2484867e-05 1.3215849e-05 2.2866658e-05 2.347468e-05 7.1736154e-06
3.1555905e-05 1.7855875e-05 2.0570411e-05 2.1478838e-05 1.7151528e-05 1.6884545e-05 6.486386e-06 1.4560779e-05
2.2042506e-05 6.199685e-06 9.313313e-06 1.6989823e-05 5.3420586e-06 2.7299639e-05 8.51828e-06 1.6538017e-05
3.0463792e-05 6.954922e-06 1.9574101e-05 6.9052794e-06 6.896138e-05 5.84044e-06 7.67103e-06 3.787756e-05
1.7176297e-05 1.922413e-05 3.8378585e-05 2.1255208e-05 2.676248e-05 0.00014436296 3.9389834e-05 1.1027392e-05
3.3747183e-05 2.773672e-05 1.580482e-05 8.726369e-06 3.0961444e-05 1.5557904e-05 4.7409434e-05 9.693075e-06
1.1091292e-05 1.0220113e-05 1.1551991e-05 1.1478751e-05 5.3164194e-06 1.4624241e-05 9.972635e-06 8.658535e-06
2.2775439e-05 8.112059e-06 1.2464019e-05 3.6046815e-05 1.137657e-05 8.326906e-06 5.4943124e-05 7.489334e-06
1.0627736e-05 5.8727132e-06 1.26284385e-05 6.87302e-06 8.384816e-06 1.6411523e-05 5.4460174e-06 1.2266091e-05
6.675009e-06 9.8864075e-06 6.7072383e-06 1.9485818e-05 2.6450587e-05 7.1496e-06 1.0259395e-05 1.4802851e-05
5.379609e-06 5.315504e-06 7.6073443e-06 1.1191521e-05 5.875954e-06 9.1299065e-05 1.237412e-05 3.37705e-05
1.3081703e-05 1.3316012e-05 8.324209e-06 1.570353e-05 9.267966e-06 7.718683e-06 5.387641e-06 2.3468385e-05
0.00017261569 2.6118967e-05 2.3685689e-05 1.647971e-05 8.13007e-06 7.44748e-06 1.6892327e-05 1.7752902e-05
7.460568e-06 1.65093e-05 1.3885917e-05 1.1912221e-05 1.2811179e-05 7.403473e-06 1.8981567e-05 9.868729e-06
2.400724e-05 8.584887e-06 1.6959071e-05 9.946745e-06 5.3990116e-06 4.2181324e-05 1.7789263e-05 5.6432696e-06
6.793893e-06 5.8252535e-06 4.7400674e-05 7.4839977e-06 6.776387e-06 6.6390035e-06 5.3085982e-06 1.44232845e-05
5.3136122e-05 1.9324896e-05 6.3621533e-06 5.2546707e-06 6.3720067e-06 1.079799e-05 1.2188514e-05 1.9039962e-05
1.0242846e-05 1.9022142e-05 4.326307e-05 1.7131035e-05 1.0769684e-05 8.996301e-06 1.5173925e-05 6.40845e-06
1.0524601e-05 9.130501e-06 1.567109e-05 1.13706e-05 9.69561e-06 6.686831e-06 6.7891156e-06 1.1074928e-05
1.0332763e-05 2.7617623e-05 3.7033256e-05 1.487353e-05 6.9975263e-06 1.9780224e-05 1.212644e-05 9.949685e-06
1.8887245e-05 1.178688e-05 8.353479e-06 1.7384216e-05 1.6759057e-05 1.0748195e-05 1.5013199e-05 1.3123954e-05
3.3319575e-05 1.1512244e-05 5.2726487e-06 7.788381e-06 1.5097983e-05 1.8913734e-05 7.0893097e-06 2.2452528e-05
2.8498047e-05 1.2018909e-05 7.548949e-06 5.6669255e-06 9.115667e-06 1.49565485e-05 5.486636e-06 6.0231355e-06
7.1842082e-06 8.196864e-06 2.2559494e-05 6.3240666e-05 1.15097655e-05 4.011653e-05 4.2136337e-05 7.140325e-05
6.4386013e-06 1.3514999e-05 1.9871266e-05 8.675644e-06 2.0769354e-05 1.2432181e-05 6.9318935e-06 1.3595358e-05
9.67846e-05 7.872367e-06 3.8941787e-05 2.8836572e-05 1.6404038e-05 1.1303382e-05 8.275154e-06 1.4195412e-05
1.5480962e-05 1.1609919e-05 4.7759104e-06 6.4982587e-06 1.4089732e-05 8.343151e-05 1.3637982e-05 7.3749026e-05
1.1836474e-05 5.7271896e-05 1.843211e-05 7.021397e-06 7.848872e-06 1.8055354e-05 8.634667e-06 8.898299e-05
1.0013647e-05 1.0396438e-05 4.181472e-05 8.435021e-06 6.1853125e-06 2.6916403e-05 1.6438626e-05 3.6299858e-05

exp_avg f4 [2]
00000000: 0997 5bba 1997 5b3a
-0.0008376693 0.00083767023

exp_avg_sq f4 [2]
00000000: 7084 2237 7084 2237
9.686788e-06 9.686788e-06
