lightning_logs/version_2/checkpoints/model=roberta--dev=False--epoch=299-step=33900--val_loss=0.36.ckpt (torch, 23307 bytes, 6 tensors)

linear.weight f4 [2, 768]
0.67924297 1.0036913 1.1353214 0.20656991 -0.14258619 0.69127715 -0.613335 2.5567725
1.6162846 0.87499124 0.31452996 -2.6408792 0.38267195 0.90323275 -2.3474224 0.08804989
-0.43843022 1.9853463 0.22245279 1.7368727 1.162798 -0.2970484 0.7958364 -0.9225045
-0.34380016 0.3611751 1.4904265 -2.200886 7.446309e-05 0.8495674 1.9174589 1.7901831
0.6210193 -1.1211549 1.4032272 0.55240774 2.187316 1.4760187 -0.061697334 3.3445444
1.0027529 0.44623804 -0.59851605 4.382241 -0.939479 1.1109504 -1.2355479 1.6517783
0.41886234 -0.4501534 -0.6335621 -0.5199793 2.2778554 4.483863 -0.63990784 0.040699437
-1.3235109 1.0802 2.050731 -0.36744848 0.45922294 -0.1627631 0.96751606 0.92335016
0.12662694 -0.3758941 0.45238987 1.8932489 2.0220802 0.5001333 2.1187901 -0.8990237
1.0681453 -0.62443966 -0.5181288 0.56673163 -4.2713857 0.33893692 1.9027071 -1.3653355
0.4095406 1.6429849 0.17171413 1.8221987 -3.151926 1.5605243 -0.15962712 -0.5509788
-1.9894078 -0.38797933 -6.097098 0.6055832 0.9935812 -0.5283322 3.023899 0.83786124
0.2510569 2.754977 -0.9952212 2.3940682 -0.1420451 -2.5445306 -0.4744104 -1.5557173
1.4012314 -5.1763606 -0.26756212 0.6913013 -0.066185646 0.45254356 -1.1807427 0.31837195
-2.1291134 1.4219804 1.5035046 0.4908888 1.3028166 2.0205832 -0.8063485 -2.3248565
1.8501499 0.6337148 0.42292944 0.25315592 1.1365634 -1.0943748 -0.21521741 -0.9743222
1.4421897 -2.11485 3.0642433 -0.76169705 -0.9706785 -0.07524774 -0.0076262914 -0.054954953
-1.4284906 -0.6407112 1.056559 3.5116527 1.325969 -0.44237763 1.1715778 0.34842542
-0.6841938 0.42926717 1.3733884 -1.2821008 0.6703412 0.54484713 -0.1250899 -2.2573488
-0.8877559 -4.2896495 -1.4264972 -0.3943906 -0.45725784 -1.1528205 -1.1628206 -1.5161699
-0.8133029 -0.50289917 1.3853059 -0.47498134 -1.3584749 2.3064895 -0.5833758 2.037084
-2.0025873 2.0036383 -1.4300002 -1.8789787 -1.4234536 -0.55356485 0.56465507 -0.75126535
0.7689568 -1.8850484 1.8743217 1.1855868 -1.7345881 -0.29960656 0.45028904 1.2359682
2.3362513 -2.3842964 -2.7781577 -0.8619762 -0.018888285 -1.3723211 2.6586978 1.6523422
-5.140485 -0.68505096 -3.1521413 1.2061796 -1.025506 2.1137147 1.4229146 1.1718465
2.417898 -0.7287203 -0.5376545 1.4934014 1.5968893 -3.0379794 2.7239916 1.4584677
2.404184 -0.06854221 -0.23213382 -0.6536499 -0.9974154 -0.060060345 -2.5456204 -1.7113744
0.068963975 1.1803674 -0.8796992 1.6403314 -1.0722922 -0.45016208 0.34156454 -0.6526899
0.38942704 -2.8736622 2.077168 3.9934692 0.22142573 -0.81014574 1.4701347 0.20331375
0.6220213 -1.693798 -0.5125437 -1.1267917 0.63884467 2.7202837 0.9885564 -0.25415564
0.5387572 0.2664656 -0.06213914 1.8340867 -1.82021 -1.3380272 1.6460062 1.4898365
3.3759842 -0.52444535 0.6334814 -0.35459682 -0.43382916 2.1102936 1.335088 -1.5473017
00000000: dee2 2d3f f578 803f 3652 913f 1087 533e
00000010: 1d02 12be 8af7 303f 8603 1dbf 29a2 2340
00000020: 6ae2 ce3f 6dff 5f3f 120a a13e 2a04 29c0
00000030: 94ed c33e 433a 673f 2b3c 16c0 8053 b43d
00000040: ed79 e0be d41f fe3f aaca 633e d851 de3f
00000050: 91d6 943f ba16 98be efbb 4b3f 4129 6cbf
00000060: 9306 b0be f1eb b83e 4cc6 be3f 51db 0cc0
00000070: 1129 9c38 407d 593f 4b6f f53f b824 e53f
00000080: 1ffb 1e3f 0182 8fbf f39c b33f 986a 0d3f
00000090: fcfc 0b40 2eee bc3f 58b6 7cbd 040d 5640
000000a0: 355a 803f 5079 e43e 5938 19bf 513b 8c40
000000b0: b281 70bf 9f33 8e3f 6f26 9ebf 796d d33f
000000c0: 2075 d63e 827a e6be 2031 22bf 5d1d 05bf
000000d0: 62c8 1140 ce7b 8f40 00d1 23bf 74b4 263d
000000e0: ce68 a9bf fe43 8a3f 2d3f 0340 3522 bcbe
000000f0: 451f eb3e 5fab 26be 22af 773f ad60 6c3f
00000100: 7eaa 013e 3175 c0be a59f e73e fb55 f23f
00000110: c369 0140 bc08 003f 429a 0740 6b26 66bf
00000120: fcb8 883f 47db 1fbf 17a4 04bf 5315 113f
00000130: 31af 88c0 2489 ad3e e88b f33f 50c3 aebf
00000140: 4eaf d13e 544d d23f d4d5 2f3e cf3d e93f
00000150: 28b9 49c0 43bf c73f 4b75 23be f20c 0dbf
00000160: eaa4 febf 3aa5 c6be 6d1b c3c0 8007 1b3f
00000170: 565b 7e3f c740 07bf 9087 4140 137e 563f
00000180: 888a 803e 8b51 3040 d1c6 7ebf 6a38 1940
00000190: 4574 11be 97d9 22c0 ece5 f2be bf21 c7bf
000001a0: 8d5b b33f bfa4 a5c0 e7fd 88be 1ff9 303f
000001b0: 578c 87bd cab3 e73e 9422 97bf a601 a33e
000001c0: 6543 08c0 7403 b63f d772 c03f c755 fb3e
000001d0: b2c2 a63f 3c51 0140 db6c 4ebf 73ca 14c0
000001e0: b6d1 ec3f 223b 223f 358a d83e a79d 813e
000001f0: e97a 913f 7914 8cbf f461 5cbe 2e6d 79bf
00000200: ac99 b83f b459 07c0 901c 4440 94fe 42bf
00000210: 637e 78bf 7d1b 9abd f8e5 f9bb 7218 61bd
00000220: c8d8 b6bf a605 24bf 533d 873f ebbe 6040
00000230: 5ab9 a93f 527f e2be 43f6 953f d164 b23e
00000240: 5327 2fbf e8c8 db3e 31cb af3f e11b a4bf
00000250: 7b9b 2b3f 1a7b 0b3f 9117 00be 6778 10c0
00000260: f843 63bf cf44 89c0 7697 b6bf 91ed c9be
00000270: b31d eabe 9f8f 93bf 4ed7 94bf db11 c2bf
00000280: 9e34 50bf 00be 00bf b451 b13f c130 f3be
00000290: 81e2 adbf 869d 1340 1e58 15bf 965f 0240
000002a0: 642a 00c0 9c3b 0040 3f0a b7bf 6082 f0bf
000002b0: ba33 b6bf 6db6 0dbf 3c8d 103f ed52 40bf
000002c0: 5ada 443f 4449 f1bf c6e9 ef3f 4fc1 973f
000002d0: fc06 debf 0866 99be 498c e63e 3534 9e3f
000002e0: 2485 1540 5098 18c0 56cd 31c0 79aa 5cbf
000002f0: 9bbb 9abc 38a8 afbf 1b28 2a40 f37f d33f
00000300: da7e a4c0 805f 2fbf afbc 49c0 1864 9a3f
00000310: c843 83bf 1a47 0740 1122 b63f 11ff 953f
00000320: d7be 1a40 6a8d 3abf baa3 09bf c727 bf3f
00000330: de66 cc3f 416e 42c0 e155 2e40 12af ba3f
00000340: 27de 1940 dc5f 8cbd 7db4 6dbe 9a55 27bf
00000350: 9e56 7fbf d601 76bd 72eb 22c0 510e dbbf
00000360: fc3c 8d3d 4716 973f f733 61bf 61f6 d13f
00000370: df40 89bf a57b e6be 8ce1 ae3e af16 27bf
00000380: fb62 c73e 15ea 37c0 52f0 0440 0095 7f40
00000390: 6dbd 623e b665 4fbf 602d bc3f 7b31 503e
000003a0: ca3c 1f3f 5fce d8bf 1036 03bf b63a 90bf
000003b0: 538b 233f 2119 2e40 0812 7d3f b020 82be
000003c0: feeb 093f 2e6e 883e 9c85 7ebd 5ac3 ea3f
000003d0: a4fc e8bf 7a44 abbf 55b0 d23f f6b2 be3f
000003e0: 2010 5840 0d42 06bf d62b 223f b78d b5be
000003f0: db1e debe 0d0f 0740 2ae4 aa3f fb0d c6bf

linear.bias f4 [2]
0.08179145 -0.08215298
00000000: 4782 a73d d23f a8bd

exp_avg f4 [2, 768]
-0.00014637236 0.000221983 -1.1060361e-05 -0.00020374832 0.00014686896 -0.000115926785 -5.908098e-05 5.8997262e-05
7.374095e-05 -0.00016133868 -5.4670076e-05 6.320713e-05 0.000115308736 -0.00010924291 0.00010923619 -1.3358684e-05
-0.00013692278 3.6332283e-05 -1.2312495e-05 -0.000100972495 -0.0001862377 9.996604e-05 3.4161021e-06 0.00021329864
-4.994328e-05 0.00013002522 0.00014413852 0.00019447338 -2.923163e-05 3.2550684e-05 -6.9200236e-05 -9.33746e-05
0.00013295545 -2.7283455e-05 4.6409605e-05 0.00014686387 -2.081294e-05 -6.662397e-05 -2.2233653e-05 -4.6511987e-06
-2.1580712e-05 0.0003677356 1.8913477e-05 -1.9486959e-06 0.00011115047 8.593188e-06 3.399699e-05 -1.981474e-05
-4.729302e-05 2.6370064e-05 -3.290556e-05 0.00016546283 -9.742502e-05 3.398485e-05 -0.0002606821 1.7216502e-05
7.4871634e-05 9.399183e-05 9.032515e-05 -0.000172036 -5.8452617e-05 -0.00048736267 -8.6753855e-05 -0.00014134073
7.445708e-05 -0.00015202165 -9.2353315e-05 -3.663725e-07 9.033352e-05 0.00013854232 0.000112427064 -1.14628165e-05
4.9956845e-05 1.28316005e-05 2.5312083e-06 -2.3665292e-05 5.4159394e-05 0.0009220694 -9.7881144e-05 2.5848625e-05
0.00011261582 -0.00015991487 0.0010785596 6.4547196e-05 -1.544773e-05 -9.565218e-05 0.00021085487 8.736937e-05
6.125146e-05 0.00010582285 3.7048812e-06 0.00016144068 -7.75619e-05 7.8501515e-05 0.00011707031 -1.0708984e-05
-9.396083e-05 0.00020598422 -0.00012614587 -0.00013677296 -5.2582305e-05 -0.0001143728 0.000118034644 0.000101216756
-8.068986e-05 1.5129094e-06 0.0001315427 -8.1267164e-05 9.834227e-05 -9.563941e-05 1.07825144e-07 -4.712667e-05
0.00013890587 -2.4172343e-06 1.3872502e-05 -8.211327e-05 -4.3209697e-05 8.9091714e-05 5.251084e-05 2.0117608e-05
-3.3327455e-05 0.00014425948 0.00018469169 -0.00012484769 -0.00012354272 -0.00016222712 -0.00011341706 -3.8820523e-05
-3.1012984e-05 3.5452176e-05 -4.9443464e-05 -0.00015200362 1.2830678e-05 0.00021138665 8.991537e-05 3.2635606e-05
2.7210735e-06 -4.7061934e-05 5.880754e-05 -4.6882647e-05 -4.9716065e-05 4.3375323e-05 6.865144e-05 3.466144e-05
0.00026793507 9.879379e-05 -0.000131252 -9.962206e-05 8.559708e-05 -1.7585568e-05 0.0001837946 -6.739157e-05
-1.726755e-05 2.3215274e-05 -0.000115282 0.0009998064 0.00022551892 0.00026689 -1.3543824e-05 -2.243459e-05
0.00029951747 0.00010018991 5.9636393e-05 -5.2265623e-05 -7.245315e-05 4.6848254e-07 -6.214251e-05 -3.070176e-05
0.00011193108 1.3639607e-05 0.00012861387 2.14969e-05 6.195329e-05 -2.9052955e-05 -0.00016151076 -0.000108464796
0.00011114484 -1.787735e-05 -0.00014940405 4.9462265e-06 4.3670934e-05 0.00015070119 -0.00020903183 3.3983222e-05
-0.00012655693 5.6515666e-05 3.107507e-05 7.3617746e-05 -1.6568725e-05 3.8939965e-05 5.5886812e-05 -3.8139355e-05
2.4749868e-05 -6.297536e-05 -3.25324e-05 0.00016314257 -6.9881207e-06 -2.9514855e-05 0.00011539389 -0.00011662557
6.7115194e-05 -0.00011479794 0.00025175544 -0.0002180959 -2.5614805e-05 -4.0074458e-05 4.8762245e-06 0.0001328429
3.4655062e-05 -0.00012207919 -5.19726e-05 3.6243993e-05 7.280175e-06 0.00014871411 0.00016888106 -5.01841e-05
0.00013666433 0.00025646377 2.3395063e-05 2.4757792e-05 9.903533e-05 5.6172903e-05 9.364378e-06 0.00013181237
1.2291333e-05 2.588713e-05 7.3579135e-06 -3.1144365e-05 3.811193e-05 -4.4598208e-05 -0.00011000842 6.9233385e-05
4.6566693e-05 2.6318146e-05 0.00017229863 -0.00024636454 -0.00011379158 -5.146207e-05 -0.00013592947 8.7699256e-05
-4.3199456e-05 0.00014129306 0.00016308071 9.767561e-05 7.113464e-05 0.00011810957 2.9936702e-05 0.000112241585
5.5976634e-05 9.5883515e-05 -6.852763e-05 -0.000101813624 9.39976e-06 4.526024e-05 7.290274e-05 -1.3197883e-05
00000000: 887b 19b9 1cc4 6839 e48f 39b7 46a5 55b9
00000010: d600 1a39 b81d f3b8 b8cd 77b8 d473 7738
00000020: 5fa5 9a38 062d 29b9 8c4d 65b8 128e 8438
00000030: e8d1 f138 5719 e5b8 bc15 e538 1c1f 60b7
00000040: ee92 0fb9 7e63 1838 c391 4eb7 32c1 d3b8
00000050: cd48 43b9 dca4 d138 3040 6536 eba8 5f39
00000060: 307a 51b8 6157 0839 e423 1739 8deb 4b39
00000070: 7336 f5b7 0887 0838 981f 91b8 1bd2 c3b8
00000080: f569 0b39 c6de e4b7 efa7 4238 78ff 1939
00000090: 7397 aeb7 79b8 8bb8 6882 bab7 7e11 9cb6
000000a0: 3a08 b5b7 a3cc c039 62a8 9e37 57c6 02b6
000000b0: 7419 e938 762b 1037 fd97 0e38 d537 a6b7
000000c0: 7e5c 46b8 4835 dd37 1304 0ab8 1780 2d39
000000d0: a950 ccb8 f48a 0e38 29ac 88b9 286c 9037
000000e0: 6704 9d38 7b1d c538 f26c bd38 9064 34b9
000000f0: 052b 75b8 b684 ffb9 9fef b5b8 dd34 14b9
00000100: d725 9c38 0068 1fb9 cfad c1b8 dab1 c4b4
00000110: 7071 bd38 ac45 1139 d2c6 eb38 6c50 40b7
00000120: c188 5138 4e47 5737 d4dd 2936 d484 c6b7
00000130: 3529 6338 08b7 713a 8a45 cdb8 80d5 d837
00000140: 282c ec38 d2ae 27b9 745e 8d3a 835d 8738
00000150: bf95 81b7 e098 c8b8 ec18 5d39 133a b738
00000160: 2174 8038 36ed dd38 60a1 7836 6748 2939
00000170: baa8 a2b8 2ea1 a438 a583 f538 bcaa 33b7
00000180: d60c c5b8 78fd 5739 0646 04b9 b66a 0fb9
00000190: d28b 5cb8 6edb efb8 5e89 f738 5544 d438
000001a0: 0a38 a9b8 2c0f cb35 baee 0939 fa6d aab8
000001b0: 1b3d ce38 0492 c8b8 808d e733 e0a9 45b8
000001c0: 43a7 1139 c537 22b6 f1bd 6837 3a34 acb8
000001d0: 0f3c 35b8 c0d6 ba38 163f 5c38 3cc2 a837
000001e0: 15c9 0bb8 5c44 1739 cca9 4139 8ce9 02b9
000001f0: 3f8b 01b9 831b 2ab9 52da edb8 38d3 22b8
00000200: f013 02b8 7cb2 1438 8461 4fb8 2963 1fb9
00000210: 5843 5737 aca7 5d39 f290 bc38 37e2 0838
00000220: b09b 3636 5e64 45b8 1ea8 7638 dca3 44b8
00000230: 3886 50b8 e6ed 3538 f6f8 8f38 7061 1138
00000240: a379 8c39 832f cf38 b1a0 09b9 30ec d0b8
00000250: 9582 b338 b884 93b7 fdb8 4039 9354 8db8
00000260: c8d9 90b7 6cbe c237 8dc3 f1b8 f00b 833a
00000270: 4679 6c39 5fed 8b39 483a 63b7 ea31 bcb7
00000280: 8e08 9d39 0c1d d238 1722 7a38 c937 5bb8
00000290: fdf1 97b8 c083 fb34 8252 82b8 c4c5 00b8
000002a0: 8abc ea38 aad5 6437 86dc 0639 3e54 b437
000002b0: ebec 8138 bfb6 f3b7 375b 29b9 9877 e3b8
000002c0: 6e16 e938 51f7 95b7 58a9 1cb9 c3f7 a536
000002d0: 4f2b 3738 8b05 1e39 8e2f 5bb9 3589 0e38
000002e0: 5eb4 04b9 3c0b 6d38 9a56 0238 3a63 9a38
000002f0: 11fd 8ab7 7853 2338 0268 6a38 d2f7 1fb8
00000300: f09d cf37 a411 84b8 6673 08b8 4011 2b39
00000310: 807b eab6 ab96 f7b7 9fff f138 e094 f4b8
00000320: 32c0 8c38 adbf f0b8 0bfe 8339 acb0 64b9
00000330: 60df d6b7 9f15 28b8 739e a336 bf4b 0b39
00000340: 975a 1138 6202 00b9 28fd 59b8 b104 1838
00000350: 3a48 f436 24f0 1b39 aa15 3139 c47c 52b8
00000360: 8d4d 0f39 fc75 8639 8440 c437 f4ae cf37
00000370: 30b1 cf38 329b 6b38 b21b 1d37 1d37 0a39
00000380: e036 4e37 3028 d937 ffe3 f636 02a1 02b8
00000390: 60da 1f38 f60e 3bb8 52b4 e6b8 6431 9138
000003a0: 9b50 4338 cac5 dc37 10ab 3439 7d2a 81b9
000003b0: 64a3 eeb8 fad8 57b8 4a88 0eb9 2eeb b738
000003c0: 1031 35b8 1128 1439 a500 2b39 32d7 cc38
000003d0: 1e2e 9538 98b1 f738 9420 fb37 3e63 eb38
000003e0: 74c8 6a38 1215 c938 7eb6 8fb8 c684 d5b8
000003f0: a9b3 1d37 d0d5 3d38 5ce3 9838 7a6c 5db7

exp_avg_sq f4 [2, 768]
1.0683539e-07 2.4754175e-07 8.887287e-09 2.5809425e-07 1.2734913e-07 8.2562956e-08 1.4759375e-08 2.3042503e-08
3.765803e-08 1.5711538e-07 3.6680106e-08 2.1525517e-08 4.0930924e-08 6.553251e-08 5.386516e-08 2.6120992e-08
8.358173e-08 2.0700115e-08 1.4985176e-08 7.4930284e-08 1.8073024e-07 2.4299265e-08 2.8607753e-08 2.7194508e-07
2.1337536e-08 7.439158e-08 1.6997818e-07 1.5725539e-07 4.102609e-08 2.9588225e-08 3.5609496e-08 7.805013e-08
1.0251915e-07 1.2627147e-08 2.4011879e-08 1.8224006e-07 2.798815e-08 1.4099024e-08 5.5752196e-08 1.1618461e-08
2.01383e-08 6.122532e-07 1.6138674e-08 1.5092873e-08 1.02626544e-07 1.1650555e-08 1.41472505e-08 1.21793855e-08
1.3890293e-08 1.1654318e-08 1.5831516e-08 1.369722e-07 3.1439427e-08 2.3343096e-08 3.3855346e-07 3.3622516e-08
3.955095e-08 7.047418e-08 5.97079e-08 1.7318183e-07 4.058992e-08 9.917059e-07 9.613714e-08 1.272396e-07
6.056143e-08 1.3163513e-07 5.2690396e-08 2.133101e-08 3.4123115e-08 7.810411e-08 1.01471954e-07 3.4025376e-08
2.30671e-08 2.016332e-08 1.3321108e-08 1.3442709e-08 1.501963e-08 4.614828e-06 7.197361e-08 1.1503924e-08
8.5791974e-08 8.6941e-08 5.4861703e-06 4.8543477e-08 1.6557214e-08 3.936725e-08 2.6730942e-07 2.3749214e-08
2.4565672e-08 6.142059e-08 2.1007663e-08 9.245458e-08 4.7089348e-08 3.1741447e-08 6.385004e-08 1.7677273e-08
5.6991574e-08 2.8445663e-07 6.657346e-08 7.9894654e-08 4.060997e-08 8.026113e-08 9.9250215e-08 1.2238422e-07
2.0479328e-08 1.1836845e-08 8.679277e-08 4.2236845e-08 3.160931e-08 4.7257142e-08 1.4666978e-08 3.5703412e-08
8.415824e-08 1.8113642e-08 8.8044745e-09 5.482834e-08 1.0038582e-08 4.976655e-08 1.9248587e-08 2.9052156e-08
1.8818218e-08 1.8495663e-07 2.246445e-07 8.9906045e-08 6.807515e-08 1.5668488e-07 8.2041865e-08 2.505383e-08
2.3423008e-08 2.179632e-08 2.2308706e-08 2.3013982e-07 1.0459899e-08 1.7243934e-07 3.8275196e-08 1.16408385e-08
4.129348e-08 2.6332428e-08 2.2740045e-08 2.6624773e-08 1.7075315e-08 3.7049382e-08 6.3400854e-08 2.569694e-08
3.0278986e-07 7.6977855e-08 4.131445e-08 3.1965886e-08 4.065561e-08 1.8012354e-08 1.4287559e-07 7.118424e-08
2.5321478e-08 1.1087023e-08 1.0137409e-07 4.844302e-06 2.59795e-07 3.1925856e-07 1.3258564e-08 1.21442945e-08
5.570401e-07 4.4396153e-08 2.5363386e-08 2.6577515e-08 5.754757e-08 1.1244836e-08 3.6167975e-08 2.406658e-08
5.2605124e-08 1.6081229e-08 7.34366e-08 1.5295443e-08 2.2986702e-08 2.5390218e-08 1.2934134e-07 1.10306914e-07
8.933901e-08 1.4115049e-08 1.3148727e-07 9.77407e-09 2.1455492e-08 1.3365512e-07 1.7832853e-07 1.6620147e-08
5.8132894e-08 3.6097354e-08 1.1812543e-08 4.08755e-08 1.1053685e-08 4.1898176e-08 5.1845895e-08 1.6017285e-08
1.5408945e-08 2.9237903e-08 3.5411492e-08 1.7051893e-07 1.6285144e-08 1.1664828e-08 3.6511448e-08 7.9968e-08
3.231368e-08 7.092132e-08 2.85157e-07 2.4673926e-07 2.8187735e-08 1.5862819e-08 1.3828746e-08 1.18259464e-07
1.2651126e-08 9.215019e-08 2.4547305e-08 3.9371642e-08 1.506022e-08 1.3622301e-07 9.853328e-08 1.1392949e-08
8.831682e-08 5.503353e-07 2.5088829e-08 1.99078e-08 2.6126328e-08 2.5879327e-08 1.8193848e-08 1.2615037e-07
1.6841119e-08 1.7422357e-08 2.1763126e-08 1.27866056e-08 1.3662366e-08 3.968216e-08 4.4287535e-08 5.3804442e-08
2.7199835e-08 1.451082e-08 1.0664411e-07 3.7412772e-07 4.1937117e-08 2.3903247e-08 9.7132684e-08 3.9406984e-08
5.172855e-08 1.0338716e-07 1.3043899e-07 7.9659415e-08 2.7973098e-08 6.519614e-08 1.7238044e-08 7.577781e-08
1.8721387e-08 5.9142348e-08 2.2409104e-08 9.4981345e-08 1.38602e-08 1.7574429e-08 6.108795e-08 1.42601e-08
00000000: 606d e533 e1e5 8434 b4ae 1832 3490 8a34
00000010: 76bd 0834 774d b133 6b90 7d32 00ef c532
00000020: 71bd 2133 8cb3 2834 348a 1d33 1de7 b832
00000030: 07cc 2f33 e1ba 8c33 5f59 6733 ab60 e032
00000040: 8b7d b333 09d0 b132 c0b8 8032 5ce9 a033
00000050: c00e 4234 a6ba d032 1dbd f532 d9ff 9134
00000060: bd49 b732 34c1 9f33 3f83 3634 08da 2834
00000070: aa34 3033 3229 fe32 0ef1 1833 839c a733
00000080: 8028 dc33 c8ee 5832 ae42 ce32 c4ad 4334
00000090: 986a f032 2a38 7232 3074 6f33 889a 4732
000000a0: 97fc ac32 b859 2435 52a1 8a32 94a5 8132
000000b0: 8a63 dc33 af27 4832 440c 7332 813d 5132
000000c0: 28a2 6e32 3c38 4832 dffd 8732 a212 1334
000000d0: 0408 0733 0384 c832 6fc2 b534 5968 1033
000000e0: bbde 2933 9757 9733 c438 8033 dcf3 3934
000000f0: 1755 2e33 c11a 8535 f473 ce33 5b9f 0834
00000100: 000e 8233 9757 0d34 b44d 6233 633b b732
00000110: c38e 1233 30ba a733 cce8 d933 4c23 1233
00000120: 1725 c632 9c33 ad32 dada 6432 a9f1 6632
00000130: 8404 8132 12d9 9a36 e98f 9a33 cba2 4532
00000140: a33c b833 52b4 ba33 d815 b836 1e7e 5033
00000150: b339 8e32 c014 2933 ba82 8f34 1301 cc32
00000160: 7c04 d332 54e6 8333 5774 b432 718b c633
00000170: 493f 4a33 1754 0833 ee1d 8933 bcd8 9732
00000180: e6c6 7433 6cb7 9834 26f7 8e33 8d92 ab33
00000190: 226b 2e33 065c ac33 6223 d533 b868 0334
000001a0: 85ea af32 ff5a 4b32 d462 ba33 e767 3533
000001b0: cec2 0733 c7f7 4a33 0dfa 7b32 5158 1933
000001c0: 7bba b433 5298 9b32 7d42 1732 667c 6b33
000001d0: 2776 2c32 e7be 5533 1758 a532 5e8e f932
000001e0: b3a5 a132 7e98 4634 cf35 7134 5f12 c133
000001f0: b630 9233 363d 2834 fe2e b033 f435 d732
00000200: bd33 c932 9d3a bb32 5da1 bf32 5a1c 7734
00000210: 1fb3 3332 c427 3934 0664 2433 f3fc 4732
00000220: a95a 3133 9f31 e232 e355 c332 7fb4 e432
00000230: 04ad 9232 3a20 1f33 fd26 8833 2bbc dc32
00000240: 1f8f a234 064f a533 b871 3133 dd4a 0933
00000250: 519d 2e33 96b9 9a32 5869 1934 f3dd 9833
00000260: 8582 d932 3e79 3e32 ffb2 d933 3d8c a236
00000270: f479 8b34 9066 ab34 c8c7 6332 2ca3 5032
00000280: 8187 1535 16ae 3e33 adde d932 934c e432
00000290: 392a 7733 502f 4132 1c57 1b33 f8ba ce32
000002a0: f2ef 6133 ff22 8a32 33b4 9d33 0963 8332
000002b0: 4b74 c532 ae19 da32 14e1 0a34 dee1 ec33
000002c0: a4da bf33 a47e 7232 f22e 0d34 d1ea 2732
000002d0: 204d b832 d782 0f34 937a 3f34 17c4 8e32
000002e0: cbad 7933 7609 1b33 1df0 4a32 168f 2f33
000002f0: 9fe6 3d32 88f3 3333 2aad 5e33 6296 8932
00000300: a15c 8432 d426 fb32 5917 1833 e317 3734
00000310: 69e3 8b32 7566 4832 c3d0 1c33 dfba ab33
00000320: 44c9 0a33 684d 9833 ae17 9934 9677 8434
00000330: 7c21 f232 b542 8832 7893 6d32 d4f5 fd33
00000340: 3e58 5932 1ae4 c533 18dc d232 9419 2933
00000350: c65d 8132 b244 1234 3e99 d333 b8ba 4332
00000360: afa8 bd33 c1ba 1335 eb82 d732 b701 ab32
00000370: 676c e032 3e4d de32 b248 9c32 f373 0734
00000380: 03aa 9032 2ba8 9532 9ff1 ba32 16ac 5b32
00000390: b9b7 6a32 ff6e 2a33 a936 3e33 9c16 6733
000003a0: 12a5 e932 434b 7932 3804 e533 b9db c834
000003b0: 591e 3433 cc53 cd32 4297 d033 7040 2933
000003c0: 242c 5e33 b105 de33 cc0e 0c34 3a11 ab33
000003d0: 7e49 f032 f501 8c33 dc12 9432 4bbb a233
000003e0: c4d0 a032 b303 7e33 247e c032 8cf8 cb33
000003f0: ce1d 6e32 94f6 9632 752f 8333 95fc 7432

exp_avg f4 [2]
0.0019234018 -0.0019234016
00000000: a81a fc3a a61a fcba

exp_avg_sq f4 [2]
1.9093308e-05 1.90933e-05
00000000: 912a a037 8d2a a037
