lightning_logs/version_1/checkpoints/model=electra--dev=False--epoch=297-step=33674--val_loss=0.39.ckpt (torch, 11019 bytes, 6 tensors)

linear.weight f4 [2, 256]
1.7157817 0.6872357 -0.07007912 1.0829159 -0.16772293 -0.41116437 0.35322946 0.44235837
0.41026306 0.4008949 -0.42943895 0.3458033 1.1205137 -0.031231266 0.42156076 -0.40636274
0.55364746 -0.47206768 -0.51567507 0.7210527 -0.7399494 1.1552628 -0.51735836 0.43182126
0.08737385 0.8936031 -0.45969412 -0.39671904 0.07445252 -1.4565717 0.68412167 0.05599959
0.338149 -0.5640931 0.39273626 -1.374195 -0.8413165 -0.098220035 -1.6578606 0.50546706
0.5554155 0.1899258 0.3427476 1.2331294 -0.7339542 -0.11629574 0.3440165 -0.41729116
-0.49185508 -0.39776137 0.91913116 0.058210153 -0.8650987 0.26897606 1.3669493 0.081299774
-0.90218407 0.44282615 -0.26223442 -0.13049172 -0.30633873 -0.005764014 -0.0050339797 0.99723184
0.34555635 0.4569737 0.27129364 -0.26696312 -1.2381853 -0.034014687 0.30991423 0.2788419
-0.3077095 0.2810504 0.12106785 0.6631561 -0.69333714 0.06858382 -1.652276 0.54864776
0.072591975 -0.5326213 0.83580106 0.6297507 0.6411606 -0.38880315 -0.03137443 -0.6463525
0.49349752 -0.059697468 -0.55434835 -0.3386027 -0.2743723 0.77711713 0.730348 -0.8419271
0.10225625 0.693364 0.6305838 0.43945628 0.081299104 0.57099146 1.2094082 -0.6483275
0.18011281 -0.55981755 -0.62588626 0.67442614 0.77598524 0.07979392 -0.1156139 -0.78530794
0.030224273 0.12551843 0.4756848 -0.9989428 0.10027492 0.20917676 0.93815404 0.07961964
-0.5476319 0.90360534 -0.4822714 0.024858613 -0.63230294 -0.31620833 0.65812176 0.37184536
-0.0944821 0.24031729 -0.4960047 -0.42332733 -1.0800613 0.4894165 -0.54515964 -0.0728281
-1.1948978 0.05046005 0.6369931 -0.47756192 1.1229101 -0.39851594 0.36594 -1.3733263
0.112356 1.148711 0.7804756 0.07623056 0.59694344 -0.060034618 0.53401595 -0.13708568
0.10541837 0.22305983 0.2546291 -1.6397786 -2.6258252 0.55535316 1.1991303 -0.15848188
0.86667264 -1.0653843 -0.31842205 -0.83069646 -1.1893893 0.22939356 -0.46123415 0.2718691
0.44145167 0.07848328 0.24954957 1.1642922 -0.093123876 0.06911751 -1.1267016 -0.6313973
0.750209 0.25604132 0.8159601 -1.0155921 -0.38605273 0.40883836 0.16731067 -1.1524109
-0.32656595 -0.38199836 -0.3233107 -0.16243605 -0.46641386 0.14501482 -0.1369541 0.25455818
-0.6149501 0.5616681 -0.30043417 -0.3548833 -0.38978985 -0.72930765 -0.38928893 -0.1192054
-0.37386307 0.09953281 -0.3541638 -0.23726678 -0.5420103 -0.54625726 0.51616657 -0.061122157
1.2256465 -0.37313634 -0.07625507 -0.42179313 0.61061513 0.44770962 -0.6967636 0.038925886
0.8318118 0.32978418 -0.10336215 -0.7317865 -0.09819414 0.8292563 0.43903092 0.32635003
-0.9222112 -0.27326897 0.16401458 -0.63228667 1.0363585 0.9311027 0.098095246 -0.32421553
0.36974084 0.519277 -1.0141623 0.5796848 -1.49952 1.4700525 -0.6154811 -0.19533943
-0.38997492 1.8882674 -0.041749306 -0.29729253 -0.56590545 -0.797462 0.02927739 -0.49110112
0.86341393 -0.8331297 -0.14650278 0.36333174 -0.64218366 -0.32898176 0.09901984 -0.19556274
00000000: bc9e db3f aeee 2f3f a485 8fbd fd9c 8a3f
00000010: 8fbf 2bbe 2384 d2be 7eda b43e cc7c e23e
00000020: 000e d23e 1942 cd3e 6cdf dbbe 210d b13e
00000030: fe6c 8f3f b6d8 ffbc d0d6 d73e c70e d0be
00000040: d7bb 0d3f dbb2 f1be 4803 04bf e996 383f
00000050: 536d 3dbf a7df 933f 9971 04bf ad17 dd3e
00000060: 10f1 b23d 2cc3 643f 075d ebbe c21e cbbe
00000070: 907a 983d f170 babf 9922 2f3f d35f 653d
00000080: de21 ad3e 6868 10bf ba14 c93e 9fe5 afbf
00000090: 8560 57bf 9627 c9bd c734 d4bf 4a66 013f
000000a0: b62f 0e3f e97b 423e 9d7c af3e 2fd7 9d3f
000000b0: 6ce4 3bbf 762c eebd ee22 b03e 30a7 d5be
000000c0: 6ed4 fbbe 61a7 cbbe 2e4c 6b3f c56d 6e3d
000000d0: 1c77 5dbf 3bb7 893e 32f8 ae3f 7f80 a63d
000000e0: 89f5 66bf 1cba e23e 9743 86be 9f9f 05be
000000f0: 6ed8 9cbe 0ee0 bcbb 15f4 a4bb 964a 7f3f
00000100: c3ec b03e 75f8 e93e 00e7 8a3e 64af 88be
00000110: db7c 9ebf fc52 0bbd 14ad 9e3e 5ec4 8e3e
00000120: 198c 9dbe d7e5 8f3e 6cf2 f73d 99c4 293f
00000130: 8b7e 31bf ac75 8c3d c87d d3bf 2e74 0c3f
00000140: 1aab 943d df59 08bf 0ff7 553f 5837 213f
00000150: 1a23 243f 3511 c7be 7982 00bd 5c77 25bf
00000160: b5ab fc3e 5585 74bd c6e9 0dbf 555d adbe
00000170: 877a 8cbe 26f1 463f 16f8 3a3f 8988 57bf
00000180: ba6b d13d 4e80 313f f16d 213f 6a00 e13e
00000190: 2580 a63d 7f2c 123f e3cd 9a3f cbf8 25bf
000001a0: 7e6f 383e 3450 0fbf 153a 20bf 31a7 2c3f
000001b0: f8a6 463f ff6a a33d fbc6 ecbd f109 49bf
000001c0: e598 f73c e787 003e f58c f33e b7ba 7fbf
000001d0: f05c cd3d 6f32 563e dd2a 703f 9f0f a33d
000001e0: 9b31 0cbf ae52 673f 47ec f6be 4aa4 cb3c
000001f0: 9bde 21bf 0fe6 a1be ab7a 283f 8462 be3e
00000200: d57f c1bd bc15 763e 54f4 fdbe 5cbe d8be
00000210: 733f 8abf cd94 fa3e 958f 0bbf e626 95bd
00000220: 69f2 98bf 33af 4e3d fb11 233f ff82 f4be
00000230: 85bb 8f3f 480a ccbe 7d5c bb3e 28c9 afbf
00000240: e71a e63d f608 933f 40cd 473f c51e 9c3d
00000250: 49d1 183f dce6 75bd 45b5 083f 3060 0cbe
00000260: 96e5 d73d cc69 643e bf5e 823e 44e4 d1bf
00000270: 850d 28c0 a02b 0e3f 1a7d 993f 1349 22be
00000280: 42de 5d3f 835e 88bf 3708 a3be 86a8 54bf
00000290: e93d 98bf 25e6 6a3e e226 ecbe 6d32 8b3e
000002a0: f405 e23e d8bb a03d ec89 7f3e 8707 953f
000002b0: bbb7 bebd 7b8d 8d3d c237 90bf 41a3 21bf
000002c0: b20d 403f d917 833e c3e2 503f ecfe 81bf
000002d0: b4a8 c5be 4353 d13e 7d53 2b3e 3382 93bf
000002e0: a733 a7be 4a95 c3be fb88 a5be a355 26be
000002f0: cccd eebe c47e 143e b23d 0cbe 7355 823e
00000300: 5f6d 1dbf 7bc9 0f3f 82d2 99be 44b3 b5be
00000310: 8992 c7be e8b3 3abf e150 c7be f621 f4bd
00000320: fb6a bfbe dcd7 cb3d f554 b5be 10f6 72be
00000330: 30c1 0abf 84d7 0bbf 7e23 043f 3a5b 7abd
00000340: fce1 9c3f ba0b bfbe 9e2b 9cbd 45f5 d7be
00000350: 4651 1c3f 323a e53e 195f 32bf c070 1f3d
00000360: 9ef1 543f 79d9 a83e 89af d3bd 5c56 3bbf
00000370: 021a c9bd 244a 543f a9c8 e03e 5a17 a73e
00000380: 0916 6cbf e9e9 8bbe 70f3 273e 8add 21bf
00000390: 65a7 843f bf5c 6e3f 29e6 c83d 94ff a5be
000003a0: ac4e bd3e 56ef 043f 12d0 81bf 3966 143f
000003b0: 45f0 bfbf ae2a bc3f 2b90 1dbf 0f07 48be
000003c0: cbaa c7be bfb2 f13f 5201 2bbd ba36 98be
000003d0: 2edf 10bf 7826 4cbf 23d7 ef3c 9b71 fbbe
000003e0: b208 5d3f fd47 55bf d304 16be 9e06 ba3e
000003f0: 2666 24bf 4c70 a8be eaca ca3d 9941 48be

linear.bias f4 [2]
-0.056379262 0.08029639
00000000: f1ed 66bd 6f72 a43d

exp_avg f4 [2, 256]
0.00011313695 0.0011189216 -0.0003689893 0.00073733437 0.00089966285 -0.00048545483 0.0011561132 0.0025728561
0.0010871736 -0.0010968565 -0.00040750715 -0.0012051527 0.00037916828 -0.000101185826 0.00030944723 0.0014555734
-0.00017837243 -4.543684e-06 0.0017349493 0.0007379491 0.00061956357 0.00017377514 0.0012029603 -7.147557e-05
0.0012254702 0.00075839175 -0.00016529791 0.00064885465 0.0009668653 0.0007111458 -0.0006156585 0.00044105772
-0.0012235938 0.0010360702 0.0015475033 0.0008424229 -0.00017630216 -0.0017372038 0.00010548149 0.0005456958
-0.001958605 -0.00023686407 0.000114729795 0.00048329105 0.0021671918 0.0011087735 -0.0014285905 -0.0008336788
0.0007009116 0.0017385854 0.0009295166 -0.0015311582 5.6957113e-05 0.0015005245 3.2382784e-05 0.0006672126
-0.0009793586 0.0006013084 0.001225339 0.0008022922 0.0007450471 0.0013930246 -0.00013184079 0.0010885613
-0.0004421168 -0.0014606225 -0.00010267631 -0.0012254182 -5.972587e-05 -0.00043194168 -3.504733e-05 0.00068942644
-2.3482577e-05 0.003022455 -0.00081849255 -0.0023757606 -0.0016871262 -0.0002688674 -0.0015352974 -0.0003937173
-0.0001954721 0.0008872672 -0.0013463738 -6.895818e-06 0.0009853279 3.8182538e-05 -0.000734277 0.0008688933
0.00030661945 0.0011948762 0.00022089417 -0.00015602756 0.0022809487 0.0008222581 -0.0019550114 0.0010057144
-0.00028769008 -0.00064213073 -0.0018815058 0.00015168342 0.0006714448 -0.00071468164 2.7829316e-05 0.00012596486
-0.0002822184 -0.0009683134 0.0013997827 -0.0014792004 -0.0032589436 -0.0006443768 0.00024269214 -0.0013166114
0.0001895448 0.00081520283 0.00042986742 -0.0013106773 0.0010611111 0.0001313831 0.0014375388 0.00025741305
0.00055357313 -0.0006531757 0.0011471405 0.0009046433 0.0003849359 0.00043870448 0.0009608968 0.0018271549
0.00065749354 0.0007858714 9.76133e-06 -0.0009894909 0.00024557568 -0.0021322498 0.00032431108 -0.0017048696
-0.0010043089 0.001633934 -0.00076512597 -0.00084696524 0.00024545766 0.0017914079 -0.00022492374 -0.00018923264
0.0011877478 0.00034351775 0.00043643173 -0.0008735426 0.0018493395 -0.0011030806 0.00023626343 0.0007182464
0.0010100415 0.0015499723 0.001983265 -7.313175e-05 -0.00013261533 0.0004634197 -0.0010101477 0.0008552855
-0.00058298477 0.0011204204 7.486215e-05 -0.00037104584 0.0019761068 -0.00066751626 -0.0014327985 0.00016592184
0.0007781837 0.0014992538 0.0007069637 -0.00038238527 -0.0017650435 0.0007435388 0.00032007776 -0.000116743715
0.0007246647 -0.0017360186 -0.0019199328 -0.00084229396 0.0014905286 0.00060993526 -0.00027647885 -0.0001160149
0.00030127369 0.0014509388 -0.0014156683 -0.00094820774 -0.0016221764 8.125944e-05 -0.0009683725 0.0015968067
-0.0022596756 -0.0009420929 0.0011499426 0.00057362946 0.0015670995 0.002737126 0.0008910016 9.007545e-05
0.0010909311 0.0005477593 -6.8562236e-05 0.00087000354 -0.0001856236 0.0022078257 -0.00012618971 0.0014375822
0.0007353218 0.0012781944 0.00017785229 0.0014557303 0.0010797798 -0.0007287759 -0.00071674713 -0.0015770006
0.0017240902 1.7225204e-05 -0.011964366 -0.0004155658 -0.0009041091 0.00046536437 0.0016994644 0.0022979288
0.00039669542 0.0010116757 -0.0016137711 -0.0005480621 -0.0011526464 0.0009408231 0.00074040674 0.00067499914
0.00036395574 0.0004433011 -0.00059116253 -4.6575457e-05 0.0011837158 -0.00021292595 -0.0017812059 0.0002043596
0.0019812293 -0.00036181777 -0.000967598 -0.0015212725 0.0006564008 0.0012597496 0.00080080377 -3.920209e-05
-7.2110866e-05 -0.0007573158 0.00039977639 0.0011306622 -0.0017963916 0.0019767943 -0.0017042835 -0.00010482631
00000000: f043 ed38 c7a8 923a e874 c1b9 ac49 413a
00000010: 5ad7 6b3a a584 feb9 b988 973a 5d9d 283b
00000020: 7e7f 8e3a 66c4 8fba afa6 d5b9 37f6 9dba
00000030: 1bcb c639 ba33 d4b8 4e3d a239 f0c8 be3a
00000040: 7c09 3bb9 f375 98b6 3d67 e33a ed72 413a
00000050: 356a 223a 6937 3639 a6ac 9d3a 28e5 95b8
00000060: f59f a03a cfce 463a d253 2db9 e617 2a3a
00000070: 3b75 7d3a 306c 3a3a 2464 21ba c43d e739
00000080: ff60 a0ba bfcc 873a 98d5 ca3a 0bd6 5c3a
00000090: c0dd 38b9 e3b2 e3ba f235 dd38 060d 0f3a
000000a0: f05b 00bb b75e 78b9 179b f038 3a62 fd39
000000b0: 7207 0e3b 4454 913a 8b3f bbba 3d8b 5aba
000000c0: 62bd 373a 3fe1 e33a ceaa 733a 25b1 c8ba
000000d0: 3ce5 6e38 3fad c43a c0d2 0738 e1e7 2e3a
000000e0: d25d 80ba 20a1 1d3a 8e9b a03a eb50 523a
000000f0: 444f 433a 2696 b63a be3e 0ab9 0eae 8e3a
00000100: eacb e7b9 5c72 bfba ed53 d7b8 369e a0ba
00000110: 2a82 7ab8 3b76 e2b9 c9ff 12b8 a0ba 343a
00000120: 73fc c4b7 6114 463b 1b90 56ba a6b2 1bbb
00000130: 9022 ddba c6f6 8cb9 083c c9ba d76b ceb9
00000140: a4f7 4cb9 7e97 683a cf78 b0ba a062 e7b6
00000150: 1e26 813a 3026 2038 7f7c 40ba 71c6 633a
00000160: c4c1 a039 649d 9c3a d49f 6739 549b 23b9
00000170: f87b 153b cf8c 573a a61f 00bb 2dd2 833a
00000180: 1cd5 96b9 aa54 28ba dc9c f6ba 350d 1f39
00000190: e603 303a 7959 3bba 0073 e937 6f15 0439
000001a0: b6f6 93b9 6ad6 7dba ea78 b73a bbe1 c1ba
000001b0: 0094 55bb 65eb 28ba 2d7b 7e39 2692 acba
000001c0: 8bc0 4639 56b3 553a d45f e139 08cb abba
000001d0: fb14 8b3a e2c3 0939 cc6b bc3a 65f5 8639
000001e0: aa1d 113a e139 2bba a65b 963a 9625 6d3a
000001f0: 39d1 c939 eb01 e639 b1e4 7b3a 257d ef3a
00000200: a55b 2c3a f002 4e3a 98c4 2337 ceb1 81ba
00000210: 9cc0 8039 37bd 0bbb 4c08 aa39 ee75 dfba
00000220: 04a3 83ba ba29 d63a bc92 48ba e006 5eba
00000230: c5b0 8039 adcd ea3a 82d9 6bb9 c06c 46b9
00000240: 34ae 9b3a 2c1a b439 e0d0 e439 74fe 64ba
00000250: 8965 f23a 3e95 90ba 7bbd 7739 b348 3c3a
00000260: 5e63 843a 7128 cb3a aaf9 013b 4f5e 99b8
00000270: a80e 0bb9 24f7 f239 ef66 84ba 3d35 603a
00000280: 72d3 18ba 12db 923a 50ff 9c38 ee88 c2b9
00000290: 9281 013b 42fc 2eba bdcc bbba 4efb 2d39
000002a0: 06ff 4b3a 9c82 c43a 8853 393a e27a c8b9
000002b0: 0859 e7ba 0bea 423a 1cd0 a739 4ed4 f4b8
000002c0: 6df7 3d3a 1e8b e3ba 41a6 fbba 64cd 5cba
000002d0: d75d c33a 10e4 1f3a 5df4 90b9 064d f3b8
000002e0: 45f4 9d39 6d2d be3a f28d b9ba 2591 78ba
000002f0: 359f d4ba d469 aa38 61da 7dba f14b d13a
00000300: 1117 14bb c9f6 76ba acb9 963a 9f5f 163a
00000310: 2267 cd3a 5b61 333b 1b92 693a e4e6 bc38
00000320: 93fd 8e3a 8197 0f3a 12c9 8fb8 f310 643a
00000330: f5a3 42b9 2bb1 103b cb51 04b9 416d bc3a
00000340: 9cc2 403a 1689 a73a dc7d 3a39 34ce be3a
00000350: 6687 8d3a 530b 3fba 16e4 3bba 5cb3 ceba
00000360: defa e13a d87e 9037 3006 44bc 4ce0 d9b9
00000370: bc01 6dba 26fc f339 90c0 de3a d998 163b
00000380: 8ffb cf39 349a 843a 2c85 d3ba d3ab 0fba
00000390: 6514 97ba 92a1 763a db17 423a 6df2 303a
000003a0: 50d1 be39 de6a e839 3ff8 1aba 045a 43b8
000003b0: e926 9b3a e044 5fb9 5a77 e9ba 5d49 5639
000003c0: 83d7 013b 5cb2 bdb9 67a6 7dba 6f65 c7ba
000003d0: 5012 2c3a 2f1e a53a 08ed 513a ec6c 24b8
000003e0: 3a3a 97b8 9a86 46ba 1499 d139 ba32 943a
000003f0: e674 ebba 1b8d 013b 4462 dfba 32d6 dbb8

exp_avg_sq f4 [2, 256]
2.9427313e-06 7.770149e-06 3.7106674e-06 6.025624e-06 9.829441e-06 6.0204216e-06 2.0199173e-05 4.829624e-05
2.518696e-05 3.614802e-06 1.8917411e-06 2.9656308e-05 3.6477422e-06 3.3970175e-06 4.860584e-06 1.6444666e-05
3.8206326e-06 2.06708e-06 1.7075638e-05 9.033446e-06 3.7972652e-06 4.496694e-06 6.0655484e-06 3.085038e-06
9.919063e-06 1.3043589e-05 7.565005e-06 1.01578535e-05 1.6305308e-05 4.3458194e-06 4.2133956e-06 9.792091e-06
1.0606069e-05 1.4963925e-05 3.259183e-05 8.1096e-06 1.2096704e-06 4.4950586e-05 4.003665e-06 5.488777e-06
3.2664142e-05 2.5354248e-06 1.6545564e-06 5.8768e-06 4.0303818e-05 1.19072865e-05 1.0368078e-05 8.90714e-06
4.705765e-06 2.3488243e-05 2.5127274e-05 3.1651918e-05 4.326268e-06 3.90682e-05 2.173431e-06 3.6201016e-06
1.5045479e-05 1.2561911e-05 2.3534243e-05 7.6990755e-06 3.1548916e-06 2.4880927e-05 1.515754e-06 2.1802198e-05
3.3528695e-06 1.0791295e-05 1.8321058e-06 1.4998215e-05 2.968816e-06 2.237924e-06 1.2755547e-06 5.5641303e-06
1.9544875e-06 6.234777e-05 8.8492425e-06 4.949306e-05 2.755577e-05 1.7261581e-06 2.0569998e-05 4.1208195e-06
4.006665e-06 4.952936e-06 1.542686e-05 7.381855e-06 9.537569e-06 2.235542e-06 1.6671338e-05 2.08867e-05
2.7003127e-06 2.242095e-05 2.8376476e-06 5.070362e-06 5.7798265e-05 1.421468e-05 2.9517898e-05 6.365025e-06
2.2739982e-06 9.074357e-06 3.5353645e-05 2.3179507e-06 9.178023e-06 6.870801e-06 3.2440814e-06 4.7154217e-06
7.2640646e-06 1.4151169e-05 2.394613e-05 3.8399958e-05 5.5458873e-05 4.6677465e-06 1.2578306e-06 8.423246e-06
3.5090313e-06 4.4658827e-06 1.05554755e-05 1.5725896e-05 1.9218453e-05 3.9261054e-06 8.920965e-06 4.863708e-06
1.9958502e-06 1.0557608e-05 1.4221471e-05 1.3010424e-05 8.039878e-06 6.6389675e-06 1.47575365e-05 2.4346049e-05
5.884882e-06 1.9228091e-05 8.440182e-06 3.0102134e-05 3.930666e-06 3.874675e-05 8.253865e-06 4.3979093e-05
7.338022e-06 3.1451596e-05 5.321976e-06 4.6776604e-06 1.6555964e-06 2.365884e-05 3.5362452e-06 2.8913983e-06
6.6516905e-06 1.986822e-06 4.2961974e-06 1.085574e-05 4.0034753e-05 1.6894794e-05 1.9772356e-06 5.0535245e-06
7.46346e-06 2.1967318e-05 3.2682474e-05 2.387851e-06 1.7948706e-06 5.1379884e-06 5.5478336e-06 1.869249e-05
1.2383439e-05 7.893894e-06 4.378644e-06 2.3147336e-06 2.3226261e-05 1.1966881e-05 2.8441289e-05 1.5186059e-05
8.686361e-06 1.5499792e-05 4.3768873e-06 1.6606676e-06 3.8715014e-05 6.2613412e-06 2.014207e-06 1.1055445e-06
5.4813404e-06 4.61812e-05 2.23612e-05 6.0109687e-06 1.655381e-05 3.2294668e-06 3.1646766e-06 1.981846e-06
1.9723864e-06 2.1235848e-05 1.9721405e-05 1.7704771e-05 3.4061246e-05 3.1215811e-06 6.045617e-06 2.3828452e-05
3.8967377e-05 9.470021e-06 1.23944865e-05 1.4141581e-05 2.7374022e-05 4.4466055e-05 1.1034618e-05 8.160622e-06
2.432814e-05 4.0177492e-06 2.6039652e-06 1.0784021e-05 1.2645007e-06 4.0523777e-05 3.617895e-06 2.1319087e-05
1.24413245e-05 1.2560057e-05 1.9694844e-06 1.28952615e-05 4.9737837e-06 3.7886552e-06 9.648531e-06 2.2825374e-05
3.457585e-05 3.4375066e-06 0.0015137304 9.240289e-06 1.7518014e-05 6.235793e-06 3.8987153e-05 4.6550605e-05
1.4928709e-06 1.9484729e-05 2.2315538e-05 1.194718e-05 1.3234138e-05 8.673004e-06 8.838094e-06 3.9911733e-06
3.0518859e-06 1.8362797e-06 1.1924887e-05 3.6357742e-06 1.4200827e-05 2.4137273e-06 2.5957836e-05 2.5414831e-06
3.475237e-05 9.4608265e-07 1.26883315e-05 2.0692909e-05 6.9156154e-06 1.844047e-05 5.231637e-06 1.2456424e-06
4.3617915e-06 5.9081344e-06 5.3776735e-06 1.9192094e-05 3.965901e-05 3.903868e-05 2.4669576e-05 2.287933e-06
00000000: bd7b 4536 895c 0237 c804 7936 b72f ca36
00000010: 21e9 2437 0703 ca36 6571 a937 b191 4a38
00000020: 9648 d337 d395 7236 bbe7 fd35 70c6 f837
00000030: bccb 7436 51f8 6336 1918 a336 a7f2 8937
00000040: fc32 8036 2ab8 0a36 a73d 8f37 5b8e 1737
00000050: 85d4 7e36 4fe2 9636 aa86 cb36 8d08 4f36
00000060: 0d6a 2637 cad5 5a37 e6d6 fd36 a66b 2a37
00000070: 62c7 8837 4ed2 9136 cb60 8d36 b648 2437
00000080: b8f0 3137 920d 7b37 36b3 0838 770e 0837
00000090: f55b a235 5389 3c38 3857 8636 3c2c b836
000000a0: db00 0938 4426 2a36 2012 de35 5431 c536
000000b0: e50b 2938 68c5 4737 8ef2 2d37 e06f 1537
000000c0: 37e6 9d36 9e08 c537 69c8 d237 fdc1 0438
000000d0: 5c2a 9136 29dd 2338 43db 1136 dff0 7236
000000e0: d76b 7c37 ffc0 5237 676b c537 472b 0137
000000f0: a0b8 5336 62b7 d037 e970 cb35 dde3 b637
00000100: dc01 6136 420c 3537 ade6 f535 d8a0 7b37
00000110: df3b 4736 3e2f 1636 ba33 ab35 84b3 ba36
00000120: d729 0336 b4c0 8238 3577 1437 c596 4f38
00000130: 9127 e737 57ae e735 bc8d ac37 9245 8a36
00000140: fe70 8636 6531 a636 ee68 8137 a7b1 f736
00000150: 8c03 2037 5206 1636 6dd9 8b37 d935 af37
00000160: 0537 3536 a014 bc37 6a6e 3e36 1422 aa36
00000170: 6a6c 7238 967b 6e37 349d f737 2693 d536
00000180: fe9a 1836 113e 1837 b048 1438 178e 1b36
00000190: 4ffb 1937 bb8b e636 e5b4 5936 2a39 9e36
000001a0: d7bd f336 cf6a 6d37 ecdf c837 a40f 2138
000001b0: 839c 6838 a39f 9c36 bbd2 a835 9151 0d37
000001c0: b37c 6b36 a4d9 9536 6c17 3137 1beb 8337
000001d0: 5037 a137 fdbc 8336 41ab 1537 ef32 a336
000001e0: 72f0 0536 9520 3137 c198 6e37 5847 5a37
000001f0: 03e3 0637 4cc4 de36 2397 7737 be3a cc37
00000200: c076 c536 034c a137 4e9a 0d37 d783 fc37
00000210: 2ae4 8336 0284 2238 157a 0a37 3176 3838
00000220: 2139 f636 e5ea 0338 6d93 b236 ccf4 9c36
00000230: dc35 de35 f976 c637 3b50 6d36 d809 4236
00000240: 9631 df36 5855 0536 0e28 9036 0c21 3637
00000250: fdea 2738 4bb9 8d37 a6b0 0436 7291 a936
00000260: a26e fa36 7546 b837 8a14 0938 f83e 2036
00000270: 49e7 f035 fc66 ac36 8727 ba36 d1cd 9c37
00000280: 77c2 4f37 0470 0437 44ec 9236 d256 1b36
00000290: 04d6 c237 5dc5 4837 3495 ee37 a0c7 7e37
000002a0: a3bb 1137 8d05 8237 2ddd 9236 1be4 de35
000002b0: ee61 2238 8318 d236 d02b 0736 3862 9435
000002c0: 5bec b736 b0b2 4138 5094 bb37 d4b1 c936
000002d0: 09dd 8a37 d1b9 5836 bb60 5436 dbff 0436
000002e0: 575d 0436 a323 b237 656f a537 b584 9437
000002f0: fcdc 0e38 5b7c 5136 74db ca36 36e3 c737
00000300: e770 2338 6ee1 1e37 eaf1 4f37 a141 6d37
00000310: 44a1 e537 1081 3a38 5321 3937 9be9 0837
00000320: 4814 cc37 34d0 8636 c8bf 2e36 04ed 3437
00000330: eab7 a935 13f8 2938 f6ca 7236 64d6 b237
00000340: 15bb 5037 09b9 5237 7c2b 0436 ba58 5837
00000350: 7ae4 a636 9a40 7e36 20e0 2137 1e79 bf37
00000360: 8905 1138 eaaf 6636 5d68 c63a bd06 1b37
00000370: a6f3 9237 0e3d d136 2386 2338 553f 4338
00000380: a75e c835 2373 a337 4132 bb37 bf70 4837
00000390: 3108 5e37 4582 1137 5347 1437 ebeb 8536
000003a0: 00cf 4c36 1776 f635 0011 4837 20fe 7336
000003b0: 1640 6e37 85fb 2136 07c0 d937 598e 2a36
000003c0: 13c3 1138 4ef6 7d35 f8df 5437 af95 ad37
000003d0: af0c e836 9cb0 9a37 6b8b af36 f22f a735
000003e0: 815b 9236 7d3e c636 dd71 b436 b5fe a037
000003f0: 8a57 2638 77bd 2338 83f1 ce37 648a 1936

exp_avg f4 [2]
0.0016803128 -0.001680312
00000000: f13d dc3a ea3d dcba

exp_avg_sq f4 [2]
2.886541e-05 2.8865416e-05
00000000: ff23 f237 0224 f237
